output/models/phase1/step_selector_3class.pt (torch, 24707 bytes, 10 tensors)

feature_mean f4 [12]
00000000: 717d 8d40 9409 0340 1124 da3c 1616 2b44
00000010: af26 9144 8945 8c44 664e 0943 8cd1 4340
00000020: 7520 7f3f f0bf 1d3f 4c7d 3b3f 2a67 773f
4.4215627 2.0474596 0.026628526 684.3451 1161.2089 1122.173 137.30624 3.0596647
0.996589 0.61621 0.7323806 0.9664179

feature_std f4 [12]
00000000: c3b0 f93f b666 f53e ba71 893c 8525 3943
00000010: e258 bd43 8297 1a44 10d1 9d42 c785 4b3f
00000020: c29a 853b bdc5 4f3e 4450 723d 6a7f 943c
1.9507068 0.47929925 0.016777862 185.14656 378.6944 618.3673 78.908325 0.79501003
0.0040772865 0.20290275 0.05915858 0.018127162

net.0.weight f4 [64, 12]
00000000: 87a9 5e3e 870b dbbd 6bbb 31be f825 9dbd
00000010: 5870 903e b366 933e 1ac8 803e ad0e 6e3e
00000020: bb04 343e 178b 3dbe 4ed6 913e a320 8ebd
00000030: 691a 2a3d 99a6 ab3d cbd6 833e d42a 27be
00000040: b99b 033e 2348 e7bd 63a9 11bd f072 35be
00000050: 1450 523e 608b 78bd 3c52 40bd 94d9 203e
00000060: fa3d e83a af95 b4bd 1b46 e83d d30d 86be
00000070: 74db 5b3e a6d5 033e 9d28 da3d 9ae4 873e
00000080: e481 f3bc c104 193e 3af8 e53c 0431 4b3e
00000090: 5e1f 693d 8cfb 22be ccc1 483e f749 3d3e
000000a0: 5a62 c3bd 786e 61be 17ae ef3d ac1c 093e
000000b0: 9b01 b03d b393 383c b2b8 333e beab a23e
000000c0: d91f ae3b 47eb 66be 5712 a73d 06dc f43d
000000d0: 7cc3 3a3e 95cf 31be d003 40be 2f2d 54be
000000e0: 687a 3ebe 6d0b ddbb 1233 07be 0f81 883e
000000f0: 221e 333e 60c1 4abd 2d2d 893d 629a fb3c
00000100: 482a 3ebd 0b40 fa3d 4460 fd3c e65a 5c3e
00000110: 1928 dc3c fffc 6d3e 32e7 643e 5277 f7bc
00000120: d08e ecbd 2817 62be 8616 dc3c b081 2bbe
00000130: c655 68be 2f61 5abe 7755 d4bd 0515 6bbd
00000140: a2d2 f1bc e98b fa3b 7171 9d3d 3293 2cbe
00000150: 8fb2 73be 9f97 f83d d283 203d 5289 73bd
00000160: 4dda 4dbe 61ad efbd 331f bf3d b1fb 72bc
00000170: e84c 2e3e e559 c0bc 84af 0fbe 824f 62be
00000180: b8b7 6bbe 7042 9bbd 51a6 e33d e0df 173e
00000190: 5b66 443c 161d 2f3e 937a fc3d 32b6 62be
000001a0: 0b15 743d a20a b53d 528c 4fbe fcb6 d13d
000001b0: eab7 93bd 0c48 bebd 8ad2 0ebe b96c 6a3e
000001c0: f6a0 70bd 3b54 2e3d e03b 473c c1ac 633e
000001d0: 3567 7ebd f73b 9fbe 84ec a43c a72f a43e
000001e0: 76c5 a6bc 0b10 f6bd b28f 9d3e b96c 60be
000001f0: f45e 39be 0789 ac3d 6b9d 973e af6c 62be
00000200: db8d 3abe 323c 4ebd 2677 263e f2f6 8a3e
00000210: cd1b b33d 6e9e 60be 0100 83be 82a6 80be
00000220: 6c97 2bbe e008 573d e928 1e3e 1093 bfbc
00000230: 0314 6d3e baad 0ebe 8e98 d9bb ce9b 8ebe
00000240: 0d82 a53c 0de1 98be 2dd5 94bd e12e a33d
00000250: fec6 fc3d e2e1 90bd 0f7f 0d3e cae1 473e
00000260: 91d0 843d dbe8 1abe b6e5 d93c 1057 93bd
00000270: 082a 08bd 1173 31be 1a65 943d c9d8 be3d
00000280: 6571 b13c c2e7 e3bc f27d f63c 3512 bc3d
00000290: a3f5 163e 36a5 313e e714 a1bd 0c25 133e
000002a0: 9dff c8bd b3de 5a3e 5ec7 57be 21a4 143e
000002b0: 1d82 a9be a516 e9bd 844b 9a3d 75cd 483e
000002c0: 13b3 6d3e d784 a83d ceb2 85bd 5056 a73c
000002d0: 61d1 3dbe cf89 2e3e c4fb ac3d 4391 1f3e
000002e0: a991 8dbe d5c9 9e3d c0a4 5fbe fca1 713e
000002f0: cb56 033e ec69 0ebe d7a9 80be 76df 6fbe
00000300: 7245 2f3c 50fb 0d3e bd3d 68bd 7f63 8e3e
00000310: ae09 903e b8a2 963c fea7 793e d0c5 7cbd
00000320: d577 8ebc c9d4 933e 9aef d43e be2d 033d
00000330: 8185 fcbd 7bc6 6bbe 3d7f 2fbd f50b 8abe
00000340: 4060 603d 3398 443c c261 fb3d 8807 93be
00000350: 0227 71bd b1c3 883d 0a3e 0ebd 3a30 93be
00000360: dae4 4b3e 5234 3d3d 8201 423e 7e2b 35bd
00000370: 3e1a 7d3e fc73 51be 2e46 a2bd a66b 80be
00000380: 73d5 cbbd 0c99 cf3d 8f88 82be 05f4 133e
00000390: c884 8a3c 1613 443e 7fcc 813b 6cc0 073e
000003a0: f2ce 1bbe dfd1 c0bd 0cf6 7cbe 478e 013d
000003b0: 4c4c 0bbe 0446 95bd cb38 61be a5f9 0cbd
000003c0: d29b 123e 3e14 9a3d 2341 793e df4e a83d
000003d0: f5dd 3a3e 71ab 7abe 9533 88bd 9ee3 08be
000003e0: f1ca 5bbe 6c72 19be 2cc2 503e 0f71 1a3c
000003f0: 148c a33d 1442 8fbe 919e 133c db6d 88bc
0.21744357 -0.10695558 -0.1735665 -0.076732576 0.2821071 0.2878929 0.25152665 0.23247786
0.1757993 -0.1851009 0.28483814 -0.06939819 0.041529093 0.08381385 0.25749812 -0.16324931
0.12852372 -0.11293056 -0.03556193 -0.17719626 0.2053836 -0.060679793 -0.046953425 0.15708
0.0017718666 -0.088176124 0.113414966 -0.26182422 0.21470433 0.12874469 0.106522776 0.26541597
-0.029725023 0.1494322 0.028072465 0.19842917 0.05691468 -0.1591627 0.19605178 0.18485247
-0.095402434 -0.22014797 0.11703127 0.13389844 0.08594056 0.011265683 0.17550924 0.31771654
0.005313855 -0.22550689 0.08157795 0.11956029 0.18238634 -0.17364343 -0.18751454 -0.20720361
-0.18601382 -0.006745747 -0.13203076 0.26660964 0.17491964 -0.049500823 0.0669807 0.030713264
-0.04642704 0.122192465 0.030929692 0.2151905 0.026874589 0.23241042 0.22353819 -0.030208264
-0.11550677 -0.22079146 0.026866209 -0.1674869 -0.2268897 -0.21326135 -0.103678636 -0.057393093
-0.029519383 0.007646073 0.07687653 -0.16853026 -0.23798583 0.121382944 0.039188214 -0.05945713
-0.20102806 -0.11702991 0.09332123 -0.014830516 0.17021525 -0.023480365 -0.14031798 -0.22100642
-0.23019302 -0.07581031 0.11115707 0.14831495 0.011987294 0.17100939 0.12328067 -0.22139814
0.05959038 0.08839919 -0.20268372 0.102399796 -0.07212813 -0.092910856 -0.13947502 0.22893037
-0.058747254 0.042560797 0.012160271 0.22233869 -0.062110145 -0.31100437 0.02013231 0.32067606
-0.020357829 -0.12014779 0.30773693 -0.21916474 -0.18102628 0.084245734 0.29612288 -0.22111772
-0.18218176 -0.050350375 0.16256389 0.2714153 0.08745537 -0.21935436 -0.2558594 -0.25127035
-0.16756982 0.0524987 0.15445293 -0.023385555 0.23152165 -0.13933459 -0.0066405004 -0.27853245
0.020203615 -0.298592 -0.072672226 0.07967926 0.12342642 -0.07074334 0.13818 0.19519725
0.064850934 -0.1512789 0.026598793 -0.0719434 -0.03324321 -0.1732905 0.07245846 0.09318692
0.021660516 -0.027820472 0.030089352 0.0918316 0.1474214 0.17348179 -0.07865315 0.14369601
-0.09814379 0.21374016 -0.21072146 0.14515735 -0.3310708 -0.11381272 0.07533935 0.19609626
0.23212843 0.08228462 -0.06528245 0.0204269 -0.18536903 0.17044757 0.08446458 0.15582757
-0.27650192 0.0775334 -0.21840191 0.23596948 0.12826078 -0.13907593 -0.25129578 -0.23425087
0.010697709 0.138654 -0.056699503 0.27810284 0.28132385 0.018388137 0.2438049 -0.061712086
-0.017391125 0.2887328 0.4158905 0.032026045 -0.12330151 -0.23024933 -0.042845953 -0.26962247
0.05477929 0.011999178 0.12274505 -0.28716683 -0.05887509 0.0667795 -0.034727134 -0.2874773
0.19911519 0.046192475 0.18945888 -0.04423093 0.24717042 -0.20454401 -0.07923542 -0.2508213
-0.099528216 0.10136613 -0.2549481 0.14448555 0.016909018 0.19147906 0.0039611454 0.13256997
-0.15215662 -0.0941503 -0.24703234 0.031629827 -0.13603324 -0.07288745 -0.21994321 -0.034417767
0.14317253 0.07523392 0.24341254 0.082181685 0.18248732 -0.24479462 -0.066504635 -0.13368079
-0.21464135 -0.14985055 0.2038657 0.009426369 0.07985702 -0.279801 0.009009973 -0.016653946

net.0.bias f4 [64]
00000000: 38af be3c dfb8 0d3d f3c5 83bd 964e 1a3d
00000010: 344e 4dbd b4a9 3c3d ffd9 66bd e760 213d
00000020: 59aa babd ecd6 c5bb a006 503c 0519 c23c
00000030: 972f 1bbd f9b9 0dbc c7c1 413d dbd3 6ebd
00000040: 8993 dc3c f27d a8bc 1277 08bc a22f 02bd
00000050: 4c29 3b3c 8ec8 bebc 8a5b da3b fa16 40bd
00000060: b3ac c6bc fff6 483c 7c9c 9abd 79c4 78bd
00000070: a422 bdbb 5de4 a3bc f7f3 e1bc 4293 9a3c
00000080: ea55 80bb 462a 9cbc cd30 9dbb 96a2 823c
00000090: 4e50 55bd 4292 a9bd 1728 ba3c 6e16 223d
000000a0: 4f83 bbbc a071 22bd 6c10 bcbc 0cf7 4a3b
000000b0: d587 73bd e820 81bd b064 0dbd 97f9 40bc
000000c0: 0d1b 0a3d 300b f43b cf76 ee3d 43f5 4cbb
000000d0: faf3 c23c b3a0 f3ba 31a8 943c 4f46 fcbc
000000e0: 8de8 9dbb 6db1 f83a 00a6 66bd 0709 b03c
000000f0: fb0e f2bc 34fb 5d3c b0a8 513d 0e0f 16bd
0.02327691 0.034600135 -0.0643424 0.0376726 -0.05012341 0.04606028 -0.05636024 0.039399054
-0.091145225 -0.0060375836 0.012696892 0.02369357 -0.037887182 -0.008650296 0.04730394 -0.05830751
0.026925819 -0.020567868 -0.00832917 -0.031783707 0.01142342 -0.023288991 0.0066637443 -0.046896912
-0.024252271 0.01226592 -0.07549378 -0.060734246 -0.0057719517 -0.020006353 -0.027582152 0.018869046
-0.0039164918 -0.019063126 -0.0047970773 0.015946668 -0.052078538 -0.082798496 0.022724194 0.039572172
-0.022889761 -0.039659142 -0.02295705 0.0030970005 -0.05945571 -0.063051045 -0.03451985 -0.011778257
0.033717204 0.0074476227 0.11643755 -0.0031274117 0.023797978 -0.0018587321 0.018146606 -0.030795245
-0.004818982 0.0018973775 -0.056310654 0.02148868 -0.029548159 0.013548661 0.051186264 -0.03663545

net.3.weight f4 [64, 64]
00000000: a6f8 c5bd 230a 2bbe 2f8d 1c3e 8741 503e
00000010: 7702 7e3e 1825 4c3d 27c6 eebd 8b43 48be
00000020: aa18 86bd 1dd9 bf3d 610d cb3d 9ab0 82be
00000030: c1f1 c9bd f756 18be 0abb 333d 3060 c23b
00000040: 1543 bbbd 6672 bf3d b0a1 e93c 7869 0cbe
00000050: 5294 02bc b259 62bd 5423 9fbd 40e6 d93d
00000060: 13a8 2abd 8371 ef3d a794 76be e35d f2bc
00000070: d5e6 cdbd b081 fb3d c9b1 ce3d 725c 1f3e
00000080: a92b 12be 40eb 263d 9b25 263e 5eec 003d
00000090: 8c91 f6ba 743c 603d 172c 30bd 68c3 76be
000000a0: aeb3 62bc 046a 22bd 6bf4 ab3d 7ab2 33bd
000000b0: 695a 78bd 66ff 133e 8d84 5fbd 78ca a0bd
000000c0: 255c 1c3d 71af 7a3e 4fc9 803d 6d4f 5abe
000000d0: 7b8b d13d 3b37 cabd d7c6 0f3e b42a 1d3e
000000e0: db8e 6b3e df68 f83c 87df 3e3e 558b de3d
000000f0: 6194 d53d 3585 f53d 0aef f0bb e5a8 e03d
00000100: 04e5 ea3b 0bab a73d c367 dabd 88c8 70be
00000110: 1832 fc3d 7405 c6bd d4b1 163e 46b5 603d
00000120: 6cb5 b7bc b995 9a3c f111 5ebe 8091 923c
00000130: be0c 61be 836b 34be 7fea 8cbd 34c5 42be
00000140: 1525 a83d d3fb 39be 2cc0 9bbd 8b42 db3d
00000150: 512f 5fbe fa0f d0bd 81e0 7e3c 550b f4bd
00000160: b30b 4ebb c698 c1bd 0263 123d c3c5 f43a
00000170: cce2 12be 261a 3a3d b8c1 8cb9 42e2 2cbe
00000180: 286f f6bc 9478 bf3d 536b 7a3d 8dc8 4abe
00000190: 8dea 373e cbd7 553d 3994 3b3c ea66 3cbe
000001a0: 90df 49be f650 b3bd 7a7f c8bd 59d2 4cbe
000001b0: d362 7e3d 38d3 273d 33ff e0bd df45 9ebd
000001c0: f710 0b3d 7c8c ce3d 342a 14be 3de7 853d
000001d0: 2a8a 15be a2cb ff3d 0ce5 0dbd d5bd 723d
000001e0: a720 073e bc66 fbbd e94f 693c 0793 a33d
000001f0: 34c6 163e 18ef 47be 83d5 83bd bf56 f63d
00000200: a704 babd 9e54 a0bd 9279 0b3e f0fc d6bd
00000210: d5b0 73bd afa7 0ebe fc96 ab3d 6144 2d3e
00000220: ee91 1b3e c39d 4dbe c254 94bc 07d9 abbd
00000230: d380 2b3e 95ad 00bd 8859 bb3d 609b 2abd
00000240: 6a6c df39 0281 6abd be15 af3b 8545 793d
00000250: 74a9 efbd 9679 bdbd e2d1 bcbc 1ee2 bd3d
00000260: 23ad cebd 52a7 113e ff1a 40bd 8ad5 91bd
00000270: 8070 ecbd 7487 c8bd 5996 3abe b6d8 033d
00000280: 3463 78bd 5f55 fa3d f8c2 f13c c817 043d
00000290: c09a 953c 5830 2fba 1344 96bd fc5e 763d
000002a0: 8e08 93bd 8664 5bbe 9689 f4bd a0dd 06be
000002b0: a6d9 98bd d004 6bbd 215a 1dbe 7a1c 873d
000002c0: e0b5 3bbe f2a3 093e f3c2 4ebd 59a8 2abd
000002d0: cb38 d03d 0889 18bd b551 fabd 425f 88bd
000002e0: 1c19 a83b 1dc0 2b3d f1a6 053e 9cf1 1fbe
000002f0: 0147 253c e820 e93d 70fb 4cbe 4dc9 853d
00000300: 5efb 783e 9d57 533e 6d64 163e 9c33 3b3e
00000310: 3876 163e 5d29 3d3e 882c bfbd 1ec8 09be
00000320: 61e3 8a3b 90f6 d4bc bdff 8c3e 2525 2b3e
00000330: eea4 003b 0481 8bbd ba94 1cbe 4220 2fbd
00000340: 101f 073e 1540 21be 045a 88bd cceb 02bd
00000350: aeb8 7bba d542 473d b290 683e dd8a 89bc
00000360: ec5f 76be ae49 503e 5955 4e3e d1cd 94bc
00000370: 0117 79bc b991 163e b875 333e 407f 16be
00000380: 0322 11be fe6e c43d 9693 0cbe 3a76 c93b
00000390: 42a8 133e 6034 083e 9ffa 87bd af25 38bd
000003a0: 9959 403e 365a 173e 4315 d3bd cbe1 ab3d
000003b0: 7d71 993d 7b51 82bd 9651 fe3c df11 96bd
000003c0: 73da 9d3e 32d4 f03d deec d53d 7bf7 7bbd
000003d0: b918 3abd 4a10 a9bc d081 ffbd e451 04bd
000003e0: 6aad 313d f8d1 bbbd bf18 8d3d d2eb 283c
000003f0: d8c3 8b3d 6918 75be efa9 67be a546 bfbd
-0.096665666 -0.16703086 0.15288232 0.20337497 0.24805628 0.049840063 -0.11658888 -0.19557016
-0.06547673 0.09367583 0.09914661 -0.2552536 -0.09860564 -0.14876924 0.043879546 0.0059318766
-0.09143654 0.09347992 0.028519481 -0.13712108 -0.007969933 -0.05526132 -0.0777041 0.1063962
-0.041664194 0.116915725 -0.24080144 -0.029585784 -0.10053793 0.12280595 0.100925036 0.15562609
-0.14274468 0.040751696 0.16225283 0.031475417 -0.0018811687 0.054745153 -0.043010797 -0.24097979
-0.013836784 -0.039651886 0.083962284 -0.04387138 -0.060633097 0.14452896 -0.05456977 -0.07851118
0.038173813 0.24480988 0.062883966 -0.21319361 0.10231682 -0.098738156 0.14040695 0.15348321
0.23003714 0.030323444 0.18639956 0.10866419 0.10428692 0.11988298 -0.0073527144 0.10969714
0.007168414 0.08186921 -0.10664322 -0.23513997 0.12314242 -0.09669009 0.14716274 0.054860376
-0.022425376 0.018870221 -0.21686532 0.017891645 -0.21977517 -0.17619137 -0.06880664 -0.1902054
0.08210198 -0.1816247 -0.07605013 0.107060514 -0.21795394 -0.10159297 0.015556456 -0.11916224
-0.0031440079 -0.09452967 0.035738952 0.001867466 -0.14344329 0.045435093 -0.00026847213 -0.16883186
-0.0300823 0.0934917 0.06113751 -0.19803067 0.17960568 0.05220775 0.011448913 -0.18398634
-0.19714189 -0.087556764 -0.09789939 -0.20002116 0.062105965 0.04097292 -0.109861754 -0.077281706
0.033951726 0.10085389 -0.14469224 0.06538246 -0.14603487 0.12490012 -0.034642264 0.05926307
0.1319605 -0.122754544 0.0142402435 0.079870276 0.14724046 -0.19524801 -0.064372085 0.12028264
-0.090829186 -0.078286394 0.13620594 -0.10497463 -0.059494812 -0.13931154 0.08378407 0.16920616
0.15192387 -0.20079713 -0.018106822 -0.08391004 0.16748361 -0.03141554 0.09147936 -0.041652083
0.0004261465 -0.057251938 0.005343168 0.060857315 -0.117022425 -0.09251706 -0.023049299 0.09271644
-0.10091617 0.14223984 -0.046900745 -0.071208075 -0.11544895 -0.09791461 -0.18221416 0.032189094
-0.060641482 0.122233145 0.029511914 0.032249242 0.018262267 -0.0006682924 -0.07337203 0.060149178
-0.07179366 -0.21425065 -0.11940305 -0.1317048 -0.07463388 -0.057377636 -0.15366413 0.06597228
-0.18331099 0.13441446 -0.050478887 -0.041664455 0.101670824 -0.03724006 -0.12222616 -0.06658794
0.0051299464 0.04193126 0.13051964 -0.1561951 0.010087729 0.113832295 -0.20017791 0.06532536
0.24314639 0.2063889 0.14686747 0.18281406 0.14693534 0.1847281 -0.093346655 -0.13455245
0.0042385315 -0.025996476 0.27538863 0.16713388 0.0019629556 -0.06811717 -0.1529111 -0.042755373
0.13195443 -0.15747102 -0.06657794 -0.031963155 -0.00096024096 0.04864772 0.22711447 -0.016789848
-0.24060029 0.20340607 0.20149745 -0.018164547 -0.015203238 0.14704026 0.17525375 -0.1469698
-0.1417313 0.095914826 -0.13728175 0.006148127 0.14419654 0.1330123 -0.06639599 -0.044957813
0.18784179 0.14780506 -0.1030679 0.08392676 0.07492349 -0.063631974 0.031044763 -0.073276274
0.30830726 0.11759223 0.104455695 -0.061515313 -0.045433734 -0.02063765 -0.12475932 -0.03230466
0.04337827 -0.09170908 0.068894856 0.01031013 0.068244636 -0.23935093 -0.22623418 -0.09339646

net.3.bias f4 [64]
00000000: 17e7 e9bc d297 18bd a3ca 6cbc 77fc 6a3d
00000010: d3e2 80bd 13ca 1d3d 4b3d febb 8a49 603d
00000020: 49f7 243d 353d a4bb 01e8 0fbc b8a9 5d3c
00000030: 4108 933b 94e6 013d 120e 9a3c 1f8c 06bc
00000040: cbd5 a73c f533 19bd c1c2 c63b 5bb5 25bc
00000050: c27f 133d 861c a0bc 7618 63bc 9c71 623c
00000060: 0f41 e83c c392 613d 8923 af3c 6481 833b
00000070: 3b4c a43d 02a5 053c c2e7 db3b 0946 28bd
00000080: c2f8 0fbd 6f08 a43c d9e2 e23c 32b7 003d
00000090: ddc3 913c a35f 5c3c bc14 133d e7fd ba3a
000000a0: 94eb 18bd d013 2f3d 8085 aabb 4f6e a43d
000000b0: ccbd a83c 2ce5 883b f98f 3b3c 311b 07bd
000000c0: b725 283d ffb1 fa3c c5f3 833c 7198 5ebc
000000d0: d794 c0bb 1100 85bb 2604 a0bb 3415 1e3c
000000e0: e797 05bd a6b0 25bd b260 af3d 9b49 c0bc
000000f0: c572 003d 17a9 48bc 0420 643d 93be 6fbc
-0.028552575 -0.037254162 -0.014452609 0.057369675 -0.06293263 0.03852279 -0.0077587715 0.054757632
0.040274892 -0.0050121793 -0.008783341 0.013529234 0.004487068 0.031714037 0.018805537 -0.008212118
0.020487687 -0.037403066 0.006065697 -0.010114039 0.03601051 -0.019544851 -0.013860812 0.013821032
0.028351335 0.055071604 0.02137925 0.0040132273 0.08022352 0.008157017 0.0067109773 -0.041082416
-0.035149343 0.020023553 0.02769606 0.03142471 0.01779359 0.013450536 0.035908446 0.0014266343
-0.03733404 0.042743504 -0.0052039027 0.08028852 0.020598315 0.00417771 0.0114479 -0.032984916
0.041051593 0.030602453 0.01610745 -0.01358615 -0.005877118 -0.004058846 -0.004883307 0.00964861
-0.03261557 -0.04045167 0.08563365 -0.023472598 0.031359453 -0.012247345 0.055694595 -0.014632839

net.6.weight f4 [3, 64]
00000000: ca2b 83be 5b69 3abe 7578 443e c2f3 2ebd
00000010: 08b9 e9bd 1225 823d 7336 6abe 680b 42bb
00000020: 52ba 803e a0d8 1dbe b78b 55be 8e00 763e
00000030: acb5 3ebe 66f2 a63e 93bb e2bd b906 9f3d
00000040: 6621 3b3d 144d 14be fbba 62be bc0c 813e
00000050: b077 5f3c 6138 e1bd 4e3c 29be a154 0abd
00000060: 752c 54bd 760e 47bd 0fff ea3d a6a6 3abe
00000070: da78 113e 591f 42be 6ffb 8b3e a41e 4dbe
00000080: 4fd6 32be 2694 c7be b99f 6b3e a9de 813d
00000090: 5364 2ebd 5f90 e3bd 5cbf 613d 4db0 e9bd
000000a0: fb16 abbe 7607 123d 536d 0bbe bc60 8f3e
000000b0: 7344 40be 4d22 abbe ad83 23be 414e b3bd
000000c0: 34dc a4be ec8c 8e3e 89cf 0c3e a4ec 57be
000000d0: 4336 bcbd 923c 09be af68 183e 5487 b2bd
000000e0: 969c 35be e7be b1be 39b2 863e c272 a0be
000000f0: 5c8e 223e 1a30 aebd 18a9 903e 9643 5fbe
00000100: 5b02 323e 0b76 743e f7dc 6a3e 88b7 7c3a
00000110: 56d4 58be be9c 893d 592c 7cbe 9213 55be
00000120: c758 17be 0349 123d fe2a acbc 2bf8 333e
00000130: c2f1 1c3e 1a1a a1be a1ca f83d 875a 7fbc
00000140: 344a 383e 58d6 283e d29b 5b3d 4d6f 70be
00000150: 31cb 44be d396 0b3e 2b6b 023e 5c71 673e
00000160: df41 523d 9c46 e33b abb4 bfbc 7ede ee3d
00000170: ca26 8d3d 583f 9c3e 7b28 38be e6c8 0bbe
00000180: fe60 473e 733b 3e3d cf99 933d 61ff 8ebe
00000190: 0209 97bb ae5e 6bbe 5c99 6fbe be61 0d3e
000001a0: 651a 753e 73ad 2cbe df70 023e 810e 2d3d
000001b0: 25ea 453e b3c0 8fbe d4dc 80bd 668e 623d
000001c0: a4f5 b3bd af4b 9f3e 0516 80be 3500 7a3e
000001d0: 726b 60be 8021 56bd 537e 00be 2033 77bd
000001e0: 13a9 663e 0979 133e 95ce 803e d04a 67be
000001f0: 9cdf 5ebc 62a1 97be 88c6 58bc 800a ddbd
00000200: a70f 673e 82bf 01be 7bb9 393e e100 48be
00000210: e0b6 2e3e 3f35 60be 093f 9a3d ed03 c2be
00000220: 64e7 56be d0d4 4a3e 5fe0 1cbe ad2a 093e
00000230: f458 6a3e 2991 823d 700c 923e 3bad 173e
00000240: 7263 953e bfab 40be 6174 02bd 8ddd 393e
00000250: 4ce4 96be addd 86be b3d9 2e3e aaba a13e
00000260: 726a 1ebe a3bd 91be 9a86 86be 14cd 423e
00000270: 81f7 c2be 6ba7 b1be 8e02 803e 4445 cbbd
00000280: 4706 dcbd a923 df3d 7fc3 2bbe a134 0abe
00000290: e446 25be 8790 47be 084c 0ebe 9175 53bc
000002a0: 69e7 9c3c 119e a4be dc20 803e b5b2 9bbe
000002b0: cd18 b83d 5e70 0f3e 934b a03d 7b5b 85bd
000002c0: db9f 9ebc 2e92 1bbd fb76 8bbe bf6b 673e
000002d0: 5d5d 4bbd 8956 48be d5f7 eebb 2e6b bd3d
000002e0: d806 8e3d 38a0 0b3e b1ab b5bd 94e7 fa3d
000002f0: 3406 c5be 41da 2e3e 7fdf 9ebe 20b2 f93a
-0.25619346 -0.18204252 0.19186576 -0.042712934 -0.11412245 0.06354727 -0.22872333 -0.002960885
0.2514215 -0.15414667 -0.20854078 0.24023649 -0.1862399 0.3260681 -0.11070933 0.07764954
0.045686148 -0.14482528 -0.2214164 0.25205028 0.013639376 -0.109970815 -0.1652691 -0.033772115
-0.05180021 -0.048597775 0.1147443 -0.18227634 0.14206257 -0.1895727 0.27340266 -0.2003122
-0.17464565 -0.38980216 0.23010148 0.06341297 -0.042576145 -0.11111521 0.055114135 -0.1141058
-0.3341597 0.035651647 -0.13615923 0.2800349 -0.18776111 -0.33424607 -0.15968199 -0.0875516
-0.32199252 0.2784189 0.13751043 -0.21086365 -0.09190037 -0.13402012 0.14883684 -0.08717218
-0.17735514 -0.3471596 0.26307848 -0.31337553 0.15874618 -0.085052684 0.28254008 -0.21803126
0.17383711 0.23873155 0.22935854 0.00096403854 -0.2117475 0.06719349 -0.24626292 -0.20808247
-0.1477996 0.03571416 -0.021016594 0.17575137 0.15326598 -0.31465226 0.121480234 -0.015585548
0.17997056 0.16488016 0.0536154 -0.23479958 -0.19218136 0.13631754 0.12736194 0.22601837
0.05133235 0.0069359075 -0.023401579 0.11663531 0.06892164 0.30517077 -0.17984192 -0.13650855
0.19470593 0.046443414 0.07207071 -0.27929214 -0.004609228 -0.22985336 -0.23398346 0.13806817
0.2393585 -0.1686304 0.1273837 0.04225016 0.193276 -0.28076705 -0.062921196 0.055311583
-0.087870866 0.3111243 -0.250168 0.24414141 -0.21915987 -0.05227804 -0.12548189 -0.06035149
0.22525434 0.1440164 0.2515761 -0.22587132 -0.013603117 -0.29615313 -0.013230927 -0.10793018
0.22564565 -0.1267071 0.18137161 -0.19531585 0.17061949 -0.21895312 0.07531554 -0.3789362
-0.20986706 0.19807744 -0.15319966 0.13395186 0.22885495 0.06375343 0.28525114 0.14812176
0.29177433 -0.18815516 -0.03184927 0.18150921 -0.29471052 -0.26341 0.17075233 0.31587726
-0.15470293 -0.28464994 -0.26274568 0.19023544 -0.38079455 -0.34698042 0.2500195 -0.09925321
-0.10743385 0.108954735 -0.16773795 -0.13496639 -0.16140324 -0.19488727 -0.13896191 -0.012906448
0.019153314 -0.32151845 0.2502507 -0.3040978 0.089891054 0.14007708 0.07826915 -0.06511589
-0.019363334 -0.037981205 -0.27239212 0.22599696 -0.049649585 -0.1956426 -0.0072927275 0.092489585
0.06934899 0.13635337 -0.08870638 0.12251201 -0.38481295 0.17075445 -0.3102989 0.0019050278

net.6.bias f4 [3]
00000000: 9732 343d 82c4 6abc 6dbf a0bc
0.04399356 -0.014329078 -0.019622529

feature_mean f4 [12]
00000000: 717d 8d40 9409 0340 1124 da3c 1616 2b44
00000010: af26 9144 8945 8c44 664e 0943 8cd1 4340
00000020: 7520 7f3f f0bf 1d3f 4c7d 3b3f 2a67 773f
4.4215627 2.0474596 0.026628526 684.3451 1161.2089 1122.173 137.30624 3.0596647
0.996589 0.61621 0.7323806 0.9664179

feature_std f4 [12]
00000000: c3b0 f93f b666 f53e ba71 893c 8525 3943
00000010: e258 bd43 8297 1a44 10d1 9d42 c785 4b3f
00000020: c29a 853b bdc5 4f3e 4450 723d 6a7f 943c
1.9507068 0.47929925 0.016777862 185.14656 378.6944 618.3673 78.908325 0.79501003
0.0040772865 0.20290275 0.05915858 0.018127162
