output/models/phase1/step_selector.pt (torch, 9441 bytes, 9 tensors)

feature_mean f4 [8]
00000000: 6665 3d3e ceef d43e fd81 383c eade eb43
00000010: b27a 8e44 336b 1544 bcbb 7242 1957 2340
0.18495712 0.41589206 0.01126146 471.74152 1139.8342 597.675 60.683334 2.552191

feature_std f4 [8]
00000000: d60c b63d 7f71 e03d adbc b43b b92d 4d43
00000010: f3d4 b743 7964 ed43 d4e5 d941 80e7 473f
0.08889167 0.10959148 0.005515656 205.1786 367.66367 474.78494 27.23722 0.78087616

net.0.weight f4 [32, 8]
00000000: a14e 8b3d 7709 c5bd 9ca6 99bc 99ba cfbd
00000010: 1b6c 143e 0d64 883c 2257 29be f29c 3ebc
00000020: 04e3 d63b ab0c 523e b5dc a9bd 3eed 8bbb
00000030: ab95 0fbb 093b 99bb 3d6b dd3d 53d1 3a3a
00000040: 4bc6 ccbc 8cd1 96bd 03af 4bbb b92a 2a3b
00000050: 4119 af3d 12a9 91bd 1fd3 443e efbc 82bd
00000060: a59e c73a e276 10bb 0ca9 04bb 55e8 803d
00000070: 877b 773d 5850 0dbd 38d3 63bb ffbf ba3d
00000080: 3b5f 8dbc c061 cbbc 08e2 1d3e 0333 6dbd
00000090: 3472 17be ee3e 053c 805b 923b 40e0 553b
000000a0: 8d47 db3d d2e4 36be f7e5 04bc 26fb 2cbe
000000b0: 47dd 513e ef9f 8db9 76e9 883d 5314 f8bc
000000c0: 81fa 1b3d 8a69 073d 33f4 613d d4e4 c2bd
000000d0: 7bc6 e53d bdef 32be f3cd 10be 3e03 8ebd
000000e0: 6a09 40be ccea 67bd 120d b53c 381a 903c
000000f0: ffe1 a8bc 4517 19bd 57d2 cf3d b9d6 d53c
00000100: 935a 68bd 24d0 c3bd 6b0e 30be 4116 ae3b
00000110: 40f9 3dbe 64e1 f23d c71e bcbd 3c86 77bc
00000120: b7dd 133c 1514 0d3c f323 18bd 73b9 5bbc
00000130: ff5a 073d 9810 0b3c 2798 0abc 0dae 8cbd
00000140: 3989 a03c 280e 75bd e8d2 313c 8bfd f83d
00000150: ec53 b33d 896f 243d 9fe8 243e 24f2 423c
00000160: a312 fdba b5de 88bb 25fe 323d 4636 97bd
00000170: aec3 13be b38c 24be 094e 4d3e 95ef 30bb
00000180: 76d2 073e 624a 303e 814d 01be 40ec 553a
00000190: b4ab 03bd e7ae 3ebe 7317 aaba e3a0 1f3e
000001a0: f512 88bd 4af6 913d 4c22 da3d be3d 2ebd
000001b0: 53f8 523e acf2 423e 87a3 1f3d ccd3 14be
000001c0: ba0c cabd 2c38 3bbe b4ee 4abe f5be 0c3d
000001d0: 4bb9 f23b 8a59 6e3c 8f53 833c 1e0c 1d3e
000001e0: bda5 1cbe d0a9 263e 5e18 093d d865 4fbe
000001f0: d9b1 fe3c 2f1a 563c 00ad c53d c8c5 4e3d
00000200: 40cf 2cbc 09d5 03bd 3437 5a3e f15f 753d
00000210: 1ef5 56be 602d 0b3e c233 60bd da86 613c
00000220: 98be a5b9 b02a ba3a e03c 19ba 9f37 a3b9
00000230: ec9b 89b9 4644 cab8 16be 5039 b4db d53a
00000240: 1fb7 463e 444b 32be a6a3 173e 4375 dbbd
00000250: a3a8 4f3c 8b71 9cbd 2056 813c db54 fa3c
00000260: b06a 403d 3ce3 c13d 3581 103e 133b ddbc
00000270: 4e98 f83d 9e10 033e 4004 8d3c c29a 9a3b
00000280: 85b7 dd3d 486d e4bc 4b09 f0bc 58a6 24bd
00000290: 922f 4fbd 6557 8dbd 51d2 093e 2f7d 8e3d
000002a0: 73ea b53d ac7c b2bb 65fd 8a3d 331c 89bd
000002b0: f031 1abd 0483 f4bd 21dd 263e 7179 42bc
000002c0: 9904 22be 8d1a f4bd 730e cb3c 54f5 8fbd
000002d0: ca15 8dbd 2e81 b33c b2ba bebb bd0b aa3d
000002e0: 9ddc dfbd 68e9 5f3b 1eea 2fbe 1b07 2039
000002f0: ccf8 1dbe 60fa 423e 6e50 12bb e896 4d3c
00000300: f6da 80bc 009f 2abe e2aa d33b 628c 0bbe
00000310: 54f9 253e 7d3a dcb9 b85d e2bd d99b 2b3e
00000320: a9c8 f43a e1ad c83b 2e44 473d 481f 14bb
00000330: 28a5 3e3e 9324 43bb 9845 24ba 944c 1f3e
00000340: 1ddc f0bb adf9 97ba ce64 d93b 0ec6 d9bb
00000350: d89e 233e 8d4f ecbb b52a 09bc ae9e 1dbe
00000360: cc37 123e dd02 843c ba17 983b 72bb e1bd
00000370: f51b 8a3d 0f6e 253e 3995 29bd 6dc6 bfbd
00000380: b46f 8a3d 9764 09be e3f1 e73d a9c8 34bd
00000390: a018 063a 2821 93b9 23e7 f7b8 e941 be3b
000003a0: 5ce2 53be 9c44 80bb b7aa 563e 3949 dcbc
000003b0: e8be 7abc 5f8b 30bd 27d5 023d 769d 543e
000003c0: 0d00 3a3e 6123 59be e744 173e 4e11 e23d
000003d0: 2b01 073b 69d4 52bd 58ef 4ebc 3211 363c
000003e0: 0166 11be a9d8 323b 7769 18be 75e8 46bc
000003f0: 3cca 52be bc21 61bd 2970 97bd 5af2 543e
0.06802107 -0.09620946 -0.018756203 -0.101430126 0.14494364 0.01664927 -0.16537145 -0.011634098
0.006557824 0.20512645 -0.0829405 -0.004270225 -0.0021909277 -0.004676227 0.1081147 0.00071265287
-0.024996897 -0.07364187 -0.0031079657 0.0025965406 0.08549739 -0.07112326 0.19221161 -0.063836925
0.0015229775 -0.0022043516 -0.0020242361 0.06294314 0.06042054 -0.03450045 -0.0034763347 0.091186516
-0.017257323 -0.024826884 0.15418255 -0.057909977 -0.14789659 0.008132679 0.004466474 0.0032634884
0.107070066 -0.17860726 -0.0081114685 -0.1689268 0.20494567 -0.00027012776 0.06685154 -0.030283129
0.038080696 0.033059634 0.055164527 -0.09516302 0.11219498 -0.17474265 -0.14141063 -0.06934212
-0.18753591 -0.056620404 0.022100959 0.017590627 -0.020615576 -0.037375707 0.10147541 0.026103364
-0.056727003 -0.09561184 -0.17193 0.0053127115 -0.18552113 0.11859396 -0.09185558 -0.015107688
0.009025029 0.008610745 -0.03714366 -0.013410914 0.033045765 0.008487843 -0.0084591275 -0.06869135
0.019596683 -0.059827954 0.010853507 0.121577345 0.08756241 0.04014543 0.16104363 0.011898551
-0.0019307922 -0.0041769394 0.043699402 -0.07383399 -0.14430115 -0.16069297 0.200493 -0.002699827
0.13263878 0.17215875 -0.12627222 0.0008160509 -0.03214617 -0.18621407 -0.0012976959 0.15588717
-0.06644241 0.07127054 0.10651073 -0.04253935 0.2060254 0.19037884 0.03897431 -0.14533919
-0.09865709 -0.18283147 -0.1981762 0.0343618 0.0074073425 0.014547715 0.016031055 0.15336654
-0.15297599 0.16275716 0.033470504 -0.20253694 0.031090664 0.013067766 0.09652138 0.050481588
-0.010547459 -0.032185588 0.21310121 0.05990595 -0.20991942 0.13591528 -0.05473686 0.013765061
-0.00031613256 0.0014203396 -0.0005845558 -0.00031131224 -0.00026246847 -9.6448275e-05 0.00019907238 0.0016316087
0.19405793 -0.17411524 0.1480852 -0.10715725 0.0126744835 -0.07638844 0.015788138 0.03055804
0.046976745 0.0946717 0.14111789 -0.027005708 0.12138425 0.12799308 0.01721394 0.0047181556
0.10826019 -0.02788414 -0.029301306 -0.0401977 -0.050582476 -0.06901435 0.13459136 0.069574706
0.08882608 -0.005446991 0.067866124 -0.06694832 -0.03764528 -0.11939052 0.16295291 -0.011869774
-0.15822066 -0.11919127 0.024787163 -0.070292145 -0.068889216 0.021912184 -0.0058205957 0.0830302
-0.109307505 0.003416622 -0.17179152 0.00015261436 -0.1542694 0.19040823 -0.0022325772 0.012548186
-0.015729409 -0.16662216 0.00645958 -0.1362777 0.16208392 -0.00042005247 -0.11053032 0.1675867
0.0018675524 0.0061242436 0.048649006 -0.0022601653 0.1861769 -0.0029776439 -0.0006266474 0.15556556
-0.0073504583 -0.0011594795 0.0066343313 -0.0066459244 0.15978563 -0.0072116316 -0.008371999 -0.15392563
0.14279097 0.016114647 0.0046415003 -0.110220805 0.06743614 0.16155265 -0.041402075 -0.093640186
0.06759587 -0.13417278 0.11325433 -0.044136677 0.0005115364 -0.00028062728 -0.000118209304 0.005806197
-0.20691818 -0.003914429 0.2096356 -0.026890384 -0.015304305 -0.043101665 0.03194156 0.20763192
0.18164082 -0.21204902 0.14772378 0.11038457 0.0020600061 -0.0514721 -0.012630306 0.011112498
-0.14199068 0.0027289784 -0.14883982 -0.012140383 -0.20584959 -0.054963812 -0.0739444 0.20795575

net.0.bias f4 [32]
00000000: 9340 cb3c e709 a23c 8c39 263d a060 b43a
00000010: c897 153c 04e3 46bc 5e16 b43d 5400 873d
00000020: 359c 62bd 4d2b 1e3d 783e 933d 1d33 963d
00000030: 0b90 df3b 3b85 a13d 2b6a 5f3d 6ed4 c9bc
00000040: 518a 0d3d 01e6 80ba 0727 093d df7b 37bd
00000050: b4bd a23d 54e0 723d ef1c 383d 0296 47bc
00000060: 6d32 4b3c 2d87 69bb 9360 26bc 7ed1 663d
00000070: adc2 173a 93fd 2d3d cf05 71bc b5fb d7bc
0.024811065 0.019780112 0.040582225 0.0013761707 0.009130426 -0.012139086 0.08793329 0.065918595
-0.055324752 0.038615514 0.07189649 0.07333968 0.006822591 0.0788674 0.05454461 -0.024637427
0.034555737 -0.0009834172 0.033484485 -0.044795867 0.07946339 0.059295967 0.04494947 -0.012181761
0.012402159 -0.003563355 -0.010154861 0.05635213 0.0005789202 0.042478155 -0.0147108575 -0.02636514

net.3.weight f4 [32, 32]
00000000: e828 5e3a cd34 00be 7018 d4bb e3bb 7c3c
00000010: e710 fcba 7911 893d 0c43 8a3d 96db ae3d
00000020: 6ad1 823d eaf5 553d 2328 5dbb bdaf 17bb
00000030: 1e23 33bc 9335 16bc 53e0 24bd 9b8d b63a
00000040: 36e8 a43d d5e5 3cb6 db23 26ba ff6d 4abd
00000050: 32bd e9ba 969d e7ba 7560 05be 1475 8e3d
00000060: d92e 1e3d 7856 093e 7af1 e5ba 4b7d 8ebb
00000070: 52cf 49bc ba64 66bd f8d9 9f3d 3beb 483d
00000080: 49a9 363d 3d6e a4bd dd74 9d3c 9b88 6bbb
00000090: aea7 af3c 2873 713b 4717 993c 116b dc3c
000000a0: 36ca f23b 2d9b 8a3c fb50 d03b e41d 083d
000000b0: a3d9 8e3c cb9c fc3d 05eb 203d 4eed 29bd
000000c0: bd6b 713c 0de2 3b38 1f77 bdbc 0c5a 29bd
000000d0: 7160 473c 8741 79bd de47 cb3c 94e6 1cbd
000000e0: 463f 6f3c bbed 0fbc 4182 ffbd bf83 193d
000000f0: eaed 7abd a3e2 113d 8b2b 20bd 8ab9 7e3c
00000100: 13e9 983d e8bd 193d c7b1 f03c f96d f73d
00000110: 7e1d 473d 64e8 dd3d 810e 033d 809d a63d
00000120: 62c5 cabc 4f50 d13c 8c55 113d 4173 a43d
00000130: 4624 a33d d8b0 413d aa3f 1a3d 03f4 0dbe
00000140: a0d7 a33c 2a26 e1b6 6e6f 093d 0e0c aebd
00000150: 807d 323d 4f9d 4a3d bdcc 243d bead e23d
00000160: 3871 b23c 2515 de3d ef0c d3bd 4656 0abd
00000170: 749f 9d3c 451f 543d 3c1c 353c a827 eebd
00000180: 9235 90bd 9d33 d23d c479 e83c afbf 05bc
00000190: ca64 cdbc 6f35 0eba 5965 3aba d5ff eebb
000001a0: 855a 8c3a 9d6a 47bd 2022 5dbd 6f7d a73d
000001b0: 6f41 08be 6014 5abd 674c c3bd 4eb0 6abb
000001c0: 4f93 333d 768b cbbd f5ce adbb ae3a b23c
000001d0: 9a8f 3dbb 6d5b b1bd d4c0 efbb 380d ff3d
000001e0: 1d9b 653d 9368 8bba 3e1f 88bd 744a acbd
000001f0: 393a 043d 661c 1e3b 7f61 183d 8947 91bb
00000200: 0bef c9b9 b391 e83d b9bf 4fbd cf00 d3bd
00000210: 5359 febd 21d7 62bd 1853 85ba 3b73 09ba
00000220: 7cce ed3d 5960 f2bb bedf a0ba ea96 44bd
00000230: 1325 e13d db90 503d e393 113d a213 2dbc
00000240: 2e4b babb 2fc7 95b6 44c6 a4bc 0afb ed3b
00000250: 5717 953d dd65 deb9 4712 a03d 1d09 8d3d
00000260: 91c7 b4b9 f892 c03d cf54 973d 01db f7bd
00000270: 1953 66b8 d830 f7bd 29d8 12b9 c3de dbbc
00000280: 8479 0b3b 69bf 6f3a 8086 f13c 1d2c 7c3a
00000290: 4aca aebd 2f8a e03d 4aad 193b 0199 e73c
000002a0: 485f a0bc 6e51 2cba 48ee 863d bbe7 0bbe
000002b0: 1445 893a 33fc fc3b 49e8 a9bc 328f ce3d
000002c0: f1cd ccbd d2f7 f13d 929e a33d 4dd6 573a
000002d0: 504c 3f3a cae9 b4bc 6956 c63a a9a4 68bd
000002e0: a171 17bc d575 cd3a a293 2dbd a86c 093e
000002f0: a20b b939 068f bf3a a24f 92bd 05f4 debd
00000300: 0a63 2cbc a96b 2a3c 06e1 d33d 0620 8e3d
00000310: 834c e03d 7d14 dcbd 352b 0f3d 7fa1 ea3c
00000320: 5a82 d23b fd30 99bd 3735 df3d 8456 36bd
00000330: 9c09 033e 83f7 e23c ef22 b23c 20ad 813c
00000340: 4d2c 803c ccab 2d37 6593 a13c eb3d 7fbd
00000350: e070 86bc 6f60 e43d b694 d23c 0578 aa3d
00000360: f2fd b1bd 6c2a 5a3c 05aa 463d dccc 073b
00000370: 2795 f23c 8f69 123d 9298 033e f4d1 783c
00000380: 9e1e 503b 25d7 b93c 91e5 803c b0bc 953d
00000390: a7ac b53b e3c2 023e d329 2a3c 31c2 0e3c
000003a0: d5df edbd bc04 2e3d ae54 883d f761 23bd
000003b0: bab6 733c a337 423c e202 3339 02ea 6b3b
000003c0: 2511 7a3b 858d ab3c 16fb c43b f37b 77bb
000003d0: dc83 bebd 681a 0d3d e33e 3fbd af33 1a3d
000003e0: c028 9b3b 291e 61bd 8489 fd3c 1457 c23d
000003f0: aec9 693d a766 123c 2827 e9bd 2169 bdbd
0.00084747234 -0.12520142 -0.0064726397 0.015425655 -0.0019231112 0.06692786 0.067510694 0.085379764
0.06387599 0.052236475 -0.0033745847 -0.002314552 -0.010933666 -0.0091680465 -0.040252995 0.00139277
0.08052103 -2.8147963e-06 -0.00063377403 -0.049421307 -0.0017832874 -0.0017670866 -0.13025077 0.06955925
0.038618896 0.13411891 -0.0017543279 -0.004348432 -0.012317495 -0.056248404 0.07805246 0.04905246
0.044595037 -0.08028839 0.019220764 -0.0035939578 0.02144226 0.003684232 0.018687857 0.026906522
0.0074093593 0.016919697 0.00635731 0.03323163 0.017437762 0.123345934 0.039286632 -0.041486077
0.014735159 4.47948e-05 -0.02312809 -0.04134564 0.0121689895 -0.060853507 0.024814542 -0.038305834
0.014602488 -0.008784707 -0.12476016 0.03747916 -0.06126205 0.03561653 -0.039104026 0.015547166
0.074663304 0.037534624 0.029381646 0.120815225 0.04861211 0.108353406 0.031996254 0.081355095
-0.024752323 0.02555099 0.035481974 0.080297954 0.07965903 0.047287792 0.03765837 -0.13862614
0.020000279 -6.7099654e-06 0.033553533 -0.08498393 0.043576717 0.049466427 0.040234316 0.11068295
0.021782503 0.10843877 -0.10305201 -0.033773683 0.019241072 0.051787633 0.011054095 -0.116286576
-0.07041468 0.10263751 0.028378375 -0.008163377 -0.025072474 -0.00054248323 -0.0007110439 -0.007293681
0.0010708129 -0.04868566 -0.053987622 0.081782214 -0.13306211 -0.053242087 -0.09536057 -0.0035810652
0.043841656 -0.099387094 -0.005304212 0.021756496 -0.0028924705 -0.08660016 -0.007316688 0.12453693
0.05605613 -0.0010636024 -0.06646584 -0.08412638 0.032282088 0.0024125814 0.037202355 -0.0044335765
-0.00038515808 0.11355915 -0.05071995 -0.103028886 -0.12419381 -0.055380944 -0.0010171859 -0.0005243306
0.116116494 -0.0073967394 -0.0012273712 -0.047995485 0.109933995 0.050919395 0.035541426 -0.010563763
-0.0056852316 -4.463734e-06 -0.020114072 0.007262592 0.07279842 -0.00042419034 0.07815986 0.06886504
-0.00034480964 0.09403032 0.07389223 -0.121023186 -5.4913664e-05 -0.12069863 -0.00014004171 -0.02683962
0.0021282146 0.0009145649 0.02948308 0.00096196105 -0.08534677 0.109638564 0.0023449236 0.0282712
-0.019576684 -0.0006573413 0.06588417 -0.13662617 0.0010472857 0.007720494 -0.020740645 0.10085906
-0.10000218 0.11814846 0.07989229 0.00082335324 0.0007297443 -0.022084136 0.0015131953 -0.056797657
-0.0092434 0.0015675375 -0.04237712 0.13420355 0.00035294617 0.0014614768 -0.07144095 -0.10886387
-0.01052166 0.010401645 0.10345654 0.06939702 0.109520935 -0.10746095 0.034953315 0.02864146
0.0064242305 -0.07480047 0.10898822 -0.0445161 0.12796634 0.027705913 0.021745173 0.015829623
0.015646124 1.0351603e-05 0.019723604 -0.06231491 -0.016411245 0.11151206 0.025705677 0.08323673
-0.08691014 0.013315778 0.048501987 0.002072147 0.029612137 0.0357452 0.1285117 0.0151867755
0.003175653 0.022685597 0.015734466 0.0731138 0.0055442634 0.12769656 0.010385948 0.008713291
-0.11614958 0.042484984 0.06656776 -0.03988835 0.014875108 0.011854085 0.00017071844 0.0035997634
0.0038157192 0.020941505 0.006011377 -0.0037763088 -0.09302494 0.03444901 -0.046690833 0.037646946
0.0047350824 -0.054960404 0.030949362 0.09489265 0.057077102 0.008935607 -0.113844216 -0.092485674

net.3.bias f4 [32]
00000000: 9ee5 09bd b11a e63d f62c f93d 969b 7bbc
00000010: 024b 12bc f945 783c 8e55 f33d b72b 783d
00000020: 927d ca3d 84db 24bd 7da9 a53d 3f0b fb3d
00000030: 2e87 e93d 8245 34bd 1636 d0bc 6dd9 f33d
00000040: ca3f ed3d 8b98 0f3e 501b bf3d 0f2e 033e
00000050: 3c3a 043e fc69 1039 3cf5 d7bc dbc8 8ebb
00000060: 104d fa3d 5b08 ef38 f02a bf38 514a 2ebd
00000070: 2972 17bc 8866 0e39 ba17 263a a776 543d
-0.033666246 0.1123556 0.12166779 -0.015356919 -0.008929016 0.0151534015 0.11881553 0.060588565
0.09887232 -0.04024841 0.08088968 0.122580044 0.114027366 -0.0440116 -0.025416415 0.11906705
0.115844324 0.14023034 0.09331381 0.12810539 0.1291284 0.00013772392 -0.026362054 -0.00435744
0.1222173 0.000113979644 9.1155875e-05 -0.042551342 -0.0092435265 0.00013580371 0.0006335933 0.05187097

net.6.weight f4 [1, 32]
00000000: bc6f cc3d 29f1 30be c5b8 86be d72c c33d
00000010: 5a61 673c 078a ddbc 640a 33be d8af 99bd
00000020: 8b62 0dbe 822e 273e dab6 d5bd f17c 62be
00000030: 1f4a 27be 7f44 423e 6a1e 593e abe2 5ebe
00000040: 5262 29be 3f82 93be 4bc7 fabd 2fce 92be
00000050: 4fa1 92be 4af9 b6ba ea38 523d 1890 733e
00000060: fecf 52be 5260 54bb d3d1 633b b415 bd3d
00000070: d7a1 5d3d dece 95ba bbeb 67bb e720 82bd
0.09982249 -0.17279495 -0.26312843 0.09530037 0.0141223315 -0.027043356 -0.17484432 -0.07504243
-0.13807122 0.16326335 -0.10435267 -0.22117974 -0.16336869 0.18971442 0.21203008 -0.21766154
-0.16541412 -0.28810307 -0.12245043 -0.2867293 -0.28638694 -0.0013959792 0.05132381 0.23785436
-0.20587155 -0.0032406044 0.0034762516 0.09232655 0.05410942 -0.0011429449 -0.003538831 -0.06353932

feature_mean f4 [8]
00000000: 6665 3d3e ceef d43e fd81 383c eade eb43
00000010: b27a 8e44 336b 1544 bcbb 7242 1957 2340
0.18495712 0.41589206 0.01126146 471.74152 1139.8342 597.675 60.683334 2.552191

feature_std f4 [8]
00000000: d60c b63d 7f71 e03d adbc b43b b92d 4d43
00000010: f3d4 b743 7964 ed43 d4e5 d941 80e7 473f
0.08889167 0.10959148 0.005515656 205.1786 367.66367 474.78494 27.23722 0.78087616
