output/models/phase1/step_selector.pt (torch, 10465 bytes, 10 tensors)

feature_mean f4 [12]
0.17946823 0.40901378 0.018745173 354.54877 420.39432 603.99927 62.416607 2.653926
0.997606 0.8341444 0.5486947 0.9673985
00000000: 85c6 373e 416a d13e 7a8f 993c 3e46 b143
00000010: 7932 d243 f4ff 1644 9baa 7942 ecd9 2940
00000020: 1b63 7f3f 7d8a 553f 4177 0c3f 6ea7 773f

feature_std f4 [12]
0.09029212 0.110352635 0.014123598 213.3161 298.8957 348.61865 27.218134 0.7978963
0.0035865728 0.1890051 0.28473708 0.016091866
00000000: 13eb b83d 9000 e23d aa66 673c ec50 5543
00000010: a672 9543 304f ae43 bdbe d941 ef42 4c3f
00000020: b50c 6b3b 8e8a 413e 0fc9 913e 17d3 833c

net.0.weight f4 [32, 12]
-0.03145497 0.22182792 0.31787854 0.15123835 0.23049937 0.2507184 0.20981498 0.06955421
0.001598521 0.30488235 -0.05834666 0.16088228 0.18126275 0.081240885 0.046477266 -0.0038387314
-0.017649276 0.30762258 -0.14955954 -0.07897965 0.3285484 0.109201 0.2165167 -0.4686353
0.34387767 -0.29035035 -0.21375008 -0.04435807 0.3902115 0.2755534 0.18849714 -0.0716595
-0.19575444 0.30855927 0.34376836 0.23874438 -0.046182115 -0.069900654 0.036450077 0.025167307
-0.3372532 -0.3668112 0.23266378 -0.138926 0.2260179 0.07616591 0.2825113 -0.25240263
-0.027198566 -0.24018319 -0.106196865 -0.39708525 -0.06636696 0.053913943 -0.32280147 0.2842423
-0.21959525 0.19770896 0.12745696 -0.15311289 0.23668034 0.061204385 0.092386015 0.19033621
0.1371422 0.15515974 0.21927688 0.1390467 0.24615853 0.10785989 -0.049404774 -0.37463498
0.21084845 0.25387868 0.330892 0.31524318 -0.08222179 0.13117418 0.09234546 -0.2535302
0.077208035 -0.09463756 -0.1090548 0.040457647 -0.3067236 -0.2840591 0.32724872 0.1743664
0.24091482 0.3604477 -0.13213055 0.23625545 -0.058352616 0.2717027 -0.29859504 0.37213677
-0.20610426 0.3022593 -0.1668257 0.21410263 0.16133429 0.15135334 0.21600151 -0.005233493
0.20878628 0.12220872 0.18892202 -0.32932878 -0.08258235 -0.049431436 0.31223738 0.03451839
0.15183055 0.2170038 -0.022088697 0.30017105 0.062110472 -0.1140324 -0.034271583 -0.12224296
-0.16161272 -0.23416023 -0.20272186 0.32169494 0.11531408 0.29767096 -0.30055928 0.10252277
0.10862277 0.15310717 -0.33103988 0.28793347 -0.11348564 0.21003821 0.35375625 -0.27414063
0.08243256 0.30809346 -0.06944989 0.17813656 -0.26101094 -0.33262497 -0.321198 -0.13223606
-0.34280026 -0.039554868 0.26800558 -0.15869686 -0.34562612 -0.23227367 0.146426 0.033369776
0.12329396 0.22789982 -0.1286166 0.22639613 0.3456338 -0.10275669 -0.2046954 0.11802608
0.41249698 -0.24253732 0.33397916 -0.048340566 0.09922247 0.052643444 -0.26498896 0.18060428
0.03711269 0.31732643 -0.065581694 0.14755021 0.030338729 -0.04462267 -0.3665072 -0.16424768
-0.23726182 -0.090573505 0.17668179 -0.22933595 -0.25246406 -0.095559984 -0.22346252 -0.35149938
0.07601261 0.2641233 -0.07971927 -0.35025135 0.04670818 0.025529288 -0.18749502 -0.13420591
0.29645303 0.13886723 0.048487384 0.3256146 -0.21657145 0.22443178 -0.18386315 -0.3180133
-0.3066051 0.19497761 0.35993654 -0.08174025 0.33905625 -0.09621578 0.22244255 -0.30629474
-0.0069954507 -0.13118307 0.16404474 -0.11000632 0.17479156 -0.38907537 0.20242162 0.15150677
-0.1561527 0.23827887 -0.30740353 -0.17172661 -0.13478293 0.34048763 0.3389348 -0.14808412
-0.11566836 0.21955311 0.030708037 0.36261645 0.07049194 0.35670152 0.3461677 0.22645737
-0.1801456 -0.04795545 0.028336387 0.09864845 0.05606567 0.008008984 0.07751238 -0.20383464
0.053751297 0.37297264 -0.10241428 -0.1358152 0.12269484 0.021245336 -0.09700916 0.27049515
0.24967253 -0.21153942 0.23047853 0.1726611 0.13718526 -0.19274569 0.08997545 0.026087482
00000000: edd6 00bd dc26 633e fac0 a23e 3ade 1a3e
00000010: 0708 6c3e 2a5e 803e bdd9 563e 7072 8e3d
00000020: 7785 d13a 8a19 9c3e e8fc 6ebd 53be 243e
00000030: f19c 393e 9f61 a63d f25e 3e3d 3a93 7bbb
00000040: 3795 90bc b580 9d3e 2326 19be 15c0 a1bd
00000050: 7f37 a83e c6a4 df3d 8eb6 5d3e f7f0 efbe
00000060: bc10 b03e cda8 94be 4de1 5abe cfb0 35bd
00000070: cdc9 c73e 5615 8d3e 6505 413e 37c2 92bd
00000080: da73 48be 7bfb 9d3e 6802 b03e 6879 743e
00000090: 7529 3dbd 1328 8fbd ad4c 153d ab2b ce3c
000000a0: 74ac acbe adce bbbe 6a3f 6e3e 9e42 0ebe
000000b0: 3d71 673e dffc 9b3d 52a5 903e eb3a 81be
000000c0: 87cf debc 95f2 75be be7d d9bd c24e cbbe
000000d0: 67eb 87bd ded4 5c3d 3c46 a5be 3588 913e
000000e0: 94dd 60be 3874 4a3e 1484 023e a0c9 1cbe
000000f0: 555c 723e 73b1 7a3d e134 bd3d 7fe7 423e
00000100: 016f 0c3e 32e2 1e3e 1e8a 603e 4262 0e3e
00000110: fb10 7c3e a5e5 dc3d a95c 4abd 28d0 bfbe
00000120: a8e8 573e 63fc 813e ad6a a93e 8e67 a13e
00000130: e663 a8bd 8652 063e 9e1f bd3d b6ce 81be
00000140: 3f1f 9e3d 56d1 c1bd 1f58 dfbd ebb6 253d
00000150: e00a 9dbe 3270 91be 258d a73e 1b8d 323e
00000160: 60b2 763e 9a8c b83e 3b4d 07be f3ec 713e
00000170: 2703 6fbd 9e1c 8b3e 73e1 98be b688 be3e
00000180: ff0c 53be bbc1 9a3e 5bd4 2abe b83d 5b3e
00000190: d134 253e 5ffc 1a3e 802f 5d3e b97d abbb
000001a0: 12cc 553e 9148 fa3d c674 413e c89d a8be
000001b0: ef20 a9bd 9e78 4abd 94dd 9f3e 2863 0d3d
000001c0: 7879 1b3e 3f36 5e3e 5bf3 b4bc 05b0 993e
000001d0: 8d67 7e3d d289 e9bd 5c60 0cbd 845a fabd
000001e0: ce7d 25be b3c7 6fbe 5296 4fbe 33b5 a43e
000001f0: ca29 ec3d 5468 983e e8e2 99be 75f7 d13d
00000200: 9d75 de3d 20c8 1c3e 0f7e a9be 046c 933e
00000210: 296b e8bd 4214 573e 8a1f b53e 295c 8cbe
00000220: 67d2 a83d 6dbe 9d3e be3b 8ebd 6e69 363e
00000230: 3aa3 85be d24d aabe 1074 a4be e468 07be
00000240: 8483 afbe 4904 22bd 0738 893e 6e81 22be
00000250: e8f5 b0be 26d9 6dbe b3f0 153e bfae 083d
00000260: 8b81 fc3d 925e 693e 12b4 03be 63d4 673e
00000270: eaf6 b03e 1972 d2bd ac9b 51be a8b7 f13d
00000280: ce32 d33e b45b 78be 51ff aa3e c200 46bd
00000290: 2635 cb3d a7a0 573d a2ac 87be 54f0 383e
000002a0: 7a03 183d 9c78 a23e b24f 86bd 6717 173e
000002b0: ed88 f83c 43c6 36bd d5a6 bbbe 8b30 28be
000002c0: c3f4 72be 9a7e b9bd 12ec 343e 0bd7 6abe
000002d0: f842 81be f4b4 c3bd 5cd3 64be baf7 b3be
000002e0: 80ac 9b3d 2b3b 873e db43 a3bd 2554 b3be
000002f0: 1451 3f3d cc22 d13c b2fe 3fbe 466d 09be
00000300: b1c8 973e 3633 0e3e b59a 463d f5b6 a63e
00000310: e8c4 5dbe 72d1 653e 9f46 3cbe a4d2 a2be
00000320: 58fb 9cbe 36a8 473e 9a49 b83e 6f67 a7bd
00000330: c898 ad3e c70c c5bd fbc7 633e aad2 9cbe
00000340: 183a e5bb db54 06be 58fb 273e fe4a e1bd
00000350: 8ffc 323e e334 c7be 9d47 4f3e 9724 1b3e
00000360: 7ee6 1fbe 60ff 733e ff63 9dbe 1ad9 2fbe
00000370: 8904 0abe 6554 ae3e dd88 ad3e 5da3 17be
00000380: 88e3 ecbd 88d2 603e 6c8f fb3c dda8 b93e
00000390: 145e 903d 95a1 b63e e53c b13e 71e4 673e
000003a0: 1778 38be ef6c 44bd b621 e83c 3308 ca3d
000003b0: 1ea5 653d 1d38 033c d0be 9e3d 07ba 50be
000003c0: 522a 5c3d 45f6 be3e 94be d1bd 2413 0bbe
000003d0: 6f47 fb3d b30a ae3c bdac c6bd 577e 8a3e
000003e0: 28aa 7f3e ca9d 58be 9002 6c3e 12ce 303e
000003f0: 4b7a 0c3e 205f 45be 0c45 b83d 6ab5 d53c

net.0.bias f4 [32]
0.040748984 0.018256456 0.019549556 -0.018602025 -0.089150555 -0.10292674 -0.06770174 0.017141286
0.032291725 -0.014050201 0.06362759 -0.0051974705 -0.014354306 -0.049536422 -0.044122107 0.014548969
0.03796162 -0.041697267 -0.04165786 0.0212534 -0.052611794 -0.07074485 -0.00465696 -0.025636982
-0.031439755 0.023625528 0.0074197915 -0.003783698 0.032236893 0.048061706 0.029239826 -0.07386859
00000000: 68e8 263d 908e 953c 6426 a03c 4663 98bc
00000010: 9194 b6bd 41cb d2bd 36a7 8abd e26b 8c3c
00000020: 5444 043d d032 66bc 2f4f 823d 8b4f aabb
00000030: 532e 6bbc b4e6 4abd 62b9 34bd cd5e 6e3c
00000040: a57d 1b3d c1ca 2abd 6fa1 2abd 9c1b ae3c
00000050: 777f 57bd ade2 90bd 6999 98bb a604 d2bc
00000060: f9c6 00bd 538a c13c b921 f33b ebf7 77bb
00000070: d50a 043d 5adc 443d 5c88 ef3c 6a48 97bd

net.3.weight f4 [32, 32]
0.10981786 -0.09192717 -0.0020597638 0.36541915 -0.19665271 0.22788256 0.007914417 -0.28355616
0.038558908 -0.32028165 -0.22961086 -0.09273408 0.35060775 0.18193613 -0.19566256 0.34427217
-0.2130276 0.07995913 0.09902026 -0.2081861 -0.34660825 0.20951463 -0.07766843 0.21122538
-0.07900357 0.13932659 0.31907037 0.051004343 0.084030785 0.2009819 -0.17248715 -0.15420572
0.14325029 -0.13284172 -0.34533757 -0.11255104 -0.05060889 0.18884297 0.20113166 -0.11891584
-0.060607128 -0.29439068 -0.07650152 0.12146933 -0.12868872 -0.14048262 -0.2410743 0.27400345
0.045311086 0.046739515 0.124723315 -0.24143802 0.17730537 0.0054949424 -0.24958391 0.31122026
0.008230791 0.072759904 -0.19394052 -0.18480897 -0.008724341 -0.14771286 -0.18773079 0.06630477
0.1413161 -0.2526671 -0.029136902 0.16319858 -0.0679409 0.10749371 -0.17006034 0.10007501
0.22099213 0.18188958 -0.15127523 0.029297834 0.11667008 0.2030857 -0.3371271 -0.14688069
-0.030780632 -0.20360157 -0.010773701 0.16730829 -0.003663911 -0.08336419 -0.2497725 -0.16131996
0.19989389 0.26066732 0.037607532 0.19350989 0.20673801 -0.12884319 -0.22334747 -0.08124187
0.26762453 -0.3326327 0.026593445 0.20952086 0.07779775 -0.263683 0.06955818 -0.13885796
0.14451462 -0.19498287 0.2596134 -0.259644 0.20982996 -0.30290094 0.03648403 -0.048188675
0.10416647 -0.30656552 -0.060505733 -0.11793058 -0.16213776 0.18913145 -0.3158556 0.2497613
-0.10822557 -0.1598653 0.06357521 -0.19629648 -0.13132092 0.14989716 -0.30346185 0.14533252
0.20403248 -0.22369988 0.24878801 0.040779654 -0.16005564 0.053170905 -0.018710965 0.30855903
-0.03589543 -0.022376603 0.15910146 0.13197489 0.19429669 0.12112654 0.12252617 -0.013883321
-0.26786456 0.21583469 0.14961043 0.024566364 -0.17807434 0.27686065 0.20798437 0.1622924
0.0058495374 -0.059081487 -0.010473696 -0.14323352 0.05247729 -0.24270457 0.16860484 0.08637873
-0.074211314 0.10561375 0.19844238 -0.14760557 -0.12604968 -0.11808907 -0.19474408 -0.29323536
-0.042034302 0.1788992 -0.11569424 -0.27935737 0.2047747 -0.15716904 0.15145755 0.12190548
-0.13105312 0.12833804 0.26833045 0.18402968 -0.06994361 0.08552759 -0.053768124 -0.19649683
-0.0467096 0.100204684 -0.27632648 0.08079691 -0.2511931 -0.23974387 -0.13372004 0.07001673
-0.13030331 -0.22093551 0.0017833876 0.15334238 0.121501274 -0.024580685 0.07372702 0.22905785
0.26844096 0.14273708 -0.08857817 0.119609535 0.25046763 0.098111056 0.0081676375 -0.2565961
-0.22084224 0.29628846 0.26397055 0.084447525 -0.20620427 -0.1478205 0.11458256 -0.06786316
-0.1093889 -0.018079547 0.042376414 0.13856983 0.14878996 -0.25639132 -0.13969192 -0.25149703
0.26569763 -0.1838013 -0.05295072 -0.08728481 -0.06503906 -0.29887682 -0.062275723 -0.031669248
-0.3487841 0.13909404 -0.0767252 0.13669564 -0.059468795 0.28555223 -0.07917714 -0.111506894
0.10930297 -0.058465097 0.17720596 -0.03469549 -0.23473296 -0.10094824 0.12066934 -0.15213372
0.011680885 0.068662696 -0.028003369 0.054260544 -0.212497 -0.27230802 -0.05246878 0.097124524
00000000: 30e8 e03d 5044 bcbd 1afd 06bb 3818 bb3e
00000010: 545f 49be 0c5a 693e 79ab 013c 462e 91be
00000020: f2ef 1d3d f5fb a3be 1c1f 6bbe 5eeb bdbd
00000030: dc82 b33e 774d 3a3e c45b 48be 7144 b03e
00000040: e823 5abe 9dc1 a33d 22cb ca3d bd2e 55be
00000050: a376 b1be 018b 563e a010 9fbd 774b 583e
00000060: a0cc a1bd a1ab 0e3e 315d a33e eee9 503d
00000070: 5518 ac3d 33ce 4d3e 79a0 30be 1be8 1dbe
00000080: 34b0 123e a907 08be 16d0 b0be 2981 e6bd
00000090: 444b 4fbd 0d60 413e 75f5 4d3e 268a f3bd
000000a0: 2e3f 78bd 60ba 96be d4ac 9cbd e9c4 f83d
000000b0: fac6 03be adda 0fbe 2edc 76be 2e4a 8c3e
000000c0: 1e98 393d ef71 3f3d f06e ff3d 873b 77be
000000d0: 8a8f 353e eb0e b43b ed92 7fbe 4358 9f3e
000000e0: 71da 063c 2503 953d 5898 46be 903e 3dbe
000000f0: 8af0 0ebc 0a42 17be 803c 40be ccca 873d
00000100: 2bb5 103e 955d 81be 83b0 eebc 871d 273e
00000110: 9924 8bbd aa25 dc3d 4c24 2ebe 20f4 cc3d
00000120: c34b 623e 4341 3a3e e5e7 1abe 0302 f03c
00000130: b9f0 ee3d b3f5 4f3e ec9b acbe e467 16be
00000140: aa27 fcbc ee7c 50be 2d84 30bc dd52 2b3e
00000150: 3a1e 70bb d8ba aabd 5dc4 7fbe 0f31 25be
00000160: fcb0 4c3e 3076 853e 5b0a 1a3d 7527 463e
00000170: 21b3 533e 78ef 03be 33b5 64be 2362 a6bd
00000180: 1506 893e d54e aabe 7fda d93c a38c 563e
00000190: 6d54 9f3d 7501 87be 8574 8e3d c830 0ebe
000001a0: a4fb 133e 97a9 47be 0cec 843e 0ff0 84be
000001b0: aadd 563e d515 9bbe 4770 153d 7d61 45bd
000001c0: 3b55 d53d 28f6 9cbe dcd4 77bd 9785 f1bd
000001d0: 7107 26be adab 413e d3b7 a1be 6dc1 7f3e
000001e0: 5ea5 ddbd bbb3 23be b833 823d f201 49be
000001f0: fe78 06be a47e 193e 5a5f 9bbe 0cd2 143e
00000200: e4ed 503e 9511 65be 49c2 7e3e 9108 273d
00000210: a0e5 23be bcc9 593d bd47 99bc 73fb 9d3e
00000220: 1607 13bd 234f b7bc 7eeb 223e 6d24 073e
00000230: b6f5 463e 3111 f83d 00ef fa3d de76 63bc
00000240: 8b25 89be c503 5d3e 7a33 193e 663f c93c
00000250: 1f59 36be aec0 8d3e dbf9 543e fb2f 263e
00000260: 7aad bf3b 6eff 71bd dd99 2bbc cfab 12be
00000270: 6df2 563d 8c87 78be bfa6 2c3e 55e7 b03d
00000280: 1afc 97bd 064c d83d 7b34 4b3e ea25 17be
00000290: 2b13 01be afd8 f1bd fe6a 47be f222 96be
000002a0: 292c 2cbd 5a31 373e 1af1 ecbd ee07 8fbe
000002b0: 75b0 513e ecf0 20be b017 1b3e 95a9 f93d
000002c0: ca32 06be 0c6b 033e 9c62 893e 4772 3c3e
000002d0: 983e 8fbd 1729 af3d f73b 5cbd 7736 49be
000002e0: 9152 3fbd 1d38 cd3d aa7a 8dbe da78 a53d
000002f0: 629c 80be 6b7f 75be e8ed 08be ee64 8f3d
00000300: 3b6e 05be eb3c 62be 8fc0 e93a c905 1d3e
00000310: a9d5 f83d 6f5d c9bc 31fe 963d 248e 6a3e
00000320: 1871 893e ab29 123e 7968 b5bd d8f5 f43d
00000330: 4b3d 803e 73ee c83d 8ed1 053c 9060 83be
00000340: 7824 62be 1fb3 973e 2627 873e d3f2 ac3d
00000350: 3627 53be 425e 17be 43aa ea3d d7fb 8abd
00000360: 4a07 e0bd 8f1b 94bc e492 2d3d 40e5 0d3e
00000370: 655c 183e b945 83be 660b 0fbe 38c4 80be
00000380: 8509 883e 6836 3cbe dbe2 58bd 61c2 b2bd
00000390: 3333 85bd 6206 99be d414 7fbd 9db7 01bd
000003a0: d493 b2be ab6e 0e3e 1a22 9dbd f1f9 0b3e
000003b0: 8d95 73bd e733 923e a027 a2bd ba5d e4bd
000003c0: 3cda df3d 1979 6fbd 7b75 353e dc1c 0ebd
000003d0: d65d 70be f3bd cebd 7d21 f73d f1c8 1bbe
000003e0: 2f61 3f3c 079f 8c3d 5267 e5bc 4e40 5e3d
000003f0: d098 59be f56b 8bbe 81e9 56bd 39e9 c63d

net.3.bias f4 [32]
0.05616324 -0.07720302 -0.020512255 0.0022638321 -0.06358477 -0.049019434 -0.02048418 0.005629528
0.04707624 0.015119945 0.10811936 -0.011135979 -0.041725785 0.032720514 -0.010492734 0.04678094
-0.028899487 0.09646145 -0.010827655 -0.06271981 0.0147478115 -0.05135593 0.013024416 -0.049577694
0.12962574 -0.006332437 -0.0077520744 0.07885019 -0.0025411432 -0.048422027 0.10261144 -0.070261054
00000000: 6d0b 663d 9e1c 9ebd 5109 a8bc cd5c 143b
00000010: bb38 82bd 9ac8 48bd 70ce a7bc e777 b83b
00000020: 04d3 403d a5b9 773c af6d dd3d ae73 36bc
00000030: a8e8 2abd f205 063d b7e9 2bbc 5f9d 3f3d
00000040: 9ebe ecbc 958d c53d 7a66 31bc 3e73 80bd
00000050: cea0 713c 985a 52bd 5c64 553c fb11 4bbd
00000060: 9cbc 043e 5580 cfbb 1d05 febb 357c a13d
00000070: 4f89 26bb 2d56 46bd f225 d23d 07e5 8fbd

net.6.weight f4 [5, 32]
-0.44874302 -0.1264454 0.075106464 0.16688 -0.14885104 0.08044426 0.010239632 -0.26811457
0.32940307 0.06742488 0.25201598 0.09300903 -0.40876356 0.07430031 -0.13998523 0.2583411
0.23133948 -0.49417686 0.16275308 -0.2568718 0.18487562 -0.16724543 0.004823324 0.08024958
0.08301145 0.31549126 0.19420005 -0.13052008 -0.22620617 0.25784564 0.06004136 -0.08739681
-0.47877082 -0.25176758 0.13282372 0.15242544 0.12447086 0.21629518 -0.3058534 0.31353745
0.11368157 -0.45939603 0.29123092 -0.24012415 0.009914835 0.2997551 0.23144713 0.2751488
-0.2708902 -0.44150445 0.28599146 0.15215395 -0.033507362 0.20664367 -0.4651656 -0.086299025
0.14664146 0.038862906 -0.45603356 -0.22933054 -0.008136834 -0.04503501 0.15228261 -0.2638904
-0.22743186 0.23835337 -0.0728859 0.06897509 0.17746104 -0.2687181 -0.06499775 -0.056483906
-0.050235566 -0.2515005 0.28018785 0.1356596 0.20438613 -0.25679982 -0.32216558 -0.020554807
-0.15851629 -0.18380108 0.13093118 -0.15930031 -0.14354207 0.16179664 0.13874868 0.040300716
0.3961952 0.075297296 -0.1409763 -0.15440631 0.34896046 -0.33590934 -0.05204319 0.25268963
0.0077336053 0.27696934 -0.015614148 -0.32698363 0.15833126 0.18926983 0.21281956 0.34666914
-0.08271432 0.2500838 -0.19031672 0.061889708 0.06266094 -0.039382976 0.2502469 -0.3391204
-0.33252493 0.2643019 -0.34700903 0.2284395 0.27806777 0.15969889 0.07743226 -0.32355884
0.31984106 -0.27707657 -0.29803818 0.15762876 0.06798755 0.3625585 -0.31094173 -0.21692617
0.10406823 0.21143048 -0.3961549 0.46747017 -0.4497933 -0.13446558 -0.16228107 -0.043330498
-0.43355164 -0.051854704 -0.2435291 0.055028453 -0.16008496 0.06556201 0.33412367 -0.24313463
-0.2662183 0.06269114 0.021931529 0.004582278 0.43173486 -0.06374292 -0.12888087 -0.15878917
0.4562148 -0.41931936 0.39803934 0.31689274 0.045938443 -0.27601182 -0.5628218 -0.003245443
00000000: a5c1 e5be e77a 01be 6bd1 993d 97e2 2a3e
00000010: 686c 18be f6bf a43d 21c4 273c 5046 89be
00000020: 85a7 a83e 0e16 8a3d 3d08 813e 857b be3d
00000030: 7549 d1be c32a 983d 4a58 0fbe 4945 843e
00000040: 42e4 6c3e c004 fdbe bea8 263e b384 83be
00000050: 0950 3d3e 6342 2bbe f90c 9e3b e459 a43d
00000060: e801 aa3d 1288 a13e 61dc 463e 0ea7 05be
00000070: 97a2 67be 5804 843e eeed 753d 19fd b2bd
00000080: 7321 f5be aee7 80be f102 083e 6a15 1c3e
00000090: 94ea fe3d 7c7c 5d3e d198 9cbe fb87 a03e
000000a0: e2d1 e83d f535 ebbe 381c 953e 1be3 75be
000000b0: d571 223c 8079 993e 7a00 6d3e 4ee0 8c3e
000000c0: 1fb2 8abe df0c e2be 796d 923e 3fce 1b3e
000000d0: 043f 09bd 669a 533e 2f2a eebe 8bbd b0bd
000000e0: 2e29 163e b62e 1f3d 3b7d e9be a0d5 6abe
000000f0: 5b50 05bc a176 38bd f9ef 1b3e a41c 87be
00000100: e6e3 68be e812 743e 3445 95bd d042 8d3d
00000110: 59b8 353e 6b95 89be 8a1d 85bd ab5b 67bd
00000120: cfc3 4dbd acc4 80be c874 8f3e 5aea 0a3e
00000130: 994a 513e 447b 83be e3f2 a4be 8e62 a8bc
00000140: 1852 22be 5a36 3cbe d312 063e 9f1f 23be
00000150: b1fc 12be 05ae 253e 2214 0e3e 5d12 253d
00000160: 19da ca3e 7835 9a3d 175c 10be b01c 1ebe
00000170: f2aa b23e 4ffc abbe 3d2b 55bd 8960 813e
00000180: 2f6a fd3b edce 8d3e 7cd2 7fbc 666a a7be
00000190: 9721 223e f3cf 413e 5fed 593e 9e7e b13e
000001a0: 2066 a9bd fc0a 803e 63e2 42be 1080 7d3d
000001b0: 6154 803d 0b50 21bd 5d20 803e 30a1 adbe
000001c0: b540 aabe 9452 873e 2bab b1be 0bec 693e
000001d0: e65e 8e3e 1b88 233e ce94 9e3d 81a9 a5be
000001e0: 35c2 a33e fbdc 8dbe 7698 98be 6f69 213e
000001f0: 0e3d 8b3d 45a1 b93e c133 9fbe e521 5ebe
00000200: b921 d53d 3b81 583e d1d4 cabe 4058 ef3e
00000210: 4f4b e6be 58b1 09be 022d 26be 527b 31bd
00000220: 7bfa ddbe 9965 54bd b15f 79be 8465 613d
00000230: 50ed 23be 6045 863d 4212 ab3e 49f8 78be
00000240: c44d 88be 3664 803d c0a9 b33c ef26 963b
00000250: 5a0c dd3e a68b 82bd 59f9 03be a199 22be
00000260: fc94 e93e 07b1 d6be d0cb cb3e c43f a23e
00000270: f329 3c3d 6c51 8dbe 1715 10bf 80b1 54bb

net.6.bias f4 [5]
-0.03565426 -0.008468301 -0.011858967 0.013616283 0.033221263
00000000: 340a 12bd a1be 0abc 1d4c 42bc d516 5f3c
00000010: 0513 083d

feature_mean f4 [12]
0.17946823 0.40901378 0.018745173 354.54877 420.39432 603.99927 62.416607 2.653926
0.997606 0.8341444 0.5486947 0.9673985
00000000: 85c6 373e 416a d13e 7a8f 993c 3e46 b143
00000010: 7932 d243 f4ff 1644 9baa 7942 ecd9 2940
00000020: 1b63 7f3f 7d8a 553f 4177 0c3f 6ea7 773f

feature_std f4 [12]
0.09029212 0.110352635 0.014123598 213.3161 298.8957 348.61865 27.218134 0.7978963
0.0035865728 0.1890051 0.28473708 0.016091866
00000000: 13eb b83d 9000 e23d aa66 673c ec50 5543
00000010: a672 9543 304f ae43 bdbe d941 ef42 4c3f
00000020: b50c 6b3b 8e8a 413e 0fc9 913e 17d3 833c
