output/models/phase1/step_selector_binary.pt (torch, 24451 bytes, 10 tensors)

feature_mean f4 [12]
0	0x408d7d71	4.4215627
1	0x40030994	2.0474596
2	0x3cda2411	0.026628526
3	0x442b1616	684.3451
4	0x449126af	1161.2089
5	0x448c4589	1122.173
6	0x43094e66	137.30624
7	0x4043d18c	3.0596647
8	0x3f7f2075	0.996589
9	0x3f1dbff0	0.61621
10	0x3f3b7d4c	0.7323806
11	0x3f77672a	0.9664179

feature_std f4 [12]
0	0x3ff9b0c3	1.9507068
1	0x3ef566b6	0.47929925
2	0x3c8971ba	0.016777862
3	0x43392585	185.14656
4	0x43bd58e2	378.6944
5	0x441a9782	618.3673
6	0x429dd110	78.908325
7	0x3f4b85c7	0.79501003
8	0x3b859ac2	0.0040772865
9	0x3e4fc5bd	0.20290275
10	0x3d725044	0.05915858
11	0x3c947f6a	0.018127162

net.0.weight f4 [64, 12]
0	0xbe08edbb	-0.13371937
1	0x3e85be2e	0.26121658
2	0xbe11b7a6	-0.14230213
3	0xbe3ec2fb	-0.18629067
4	0xbe3c9be2	-0.1841884
5	0xbe095014	-0.13409454
6	0x3e82507f	0.2545204
7	0xbd874700	-0.06605339
8	0x3cad5e95	0.021163264
9	0xbd924f20	-0.07143998
10	0x3e11eca5	0.14250429
11	0xbceb0986	-0.028691065
12	0x3de9f1b0	0.11423051
13	0xbea5787f	-0.32318494
14	0xbe813175	-0.25233045
15	0x3e415561	0.18880226
16	0x3e756dfa	0.23967734
17	0xbc46c5b3	-0.012132096
18	0xbe91158f	-0.2833676
19	0xbe64676a	-0.22305074
20	0x3e3904bb	0.18068211
21	0xbe229e80	-0.15880775
22	0x3e18e2c7	0.14930259
23	0xbd1334c2	-0.035938986
24	0xbe1fd0e8	-0.15607035
25	0x3da4ffc6	0.080565974
26	0xbdca06ad	-0.098645546
27	0x3d24880c	0.040168807
28	0x3d515a7d	0.051111687
29	0x3e6364e8	0.22206461
30	0xbe539d61	-0.20665504
31	0xbe3a7ad6	-0.1821092
32	0xbe27e9fe	-0.16397855
33	0x3e432c61	0.19059898
34	0x3e053f24	0.13012367
35	0xbe3fc9e8	-0.18729365
36	0xbcc72ca0	-0.024313271
37	0xbe362b0f	-0.17789863
38	0x3e2d9147	0.1694995
39	0xbd0bc6c6	-0.034125112
40	0xbdd83b93	-0.10558238
41	0xbdc29a32	-0.09502067
42	0x3e24d03a	0.16095057
43	0xbe3e3f45	-0.18578823
44	0x3e7b984e	0.24569818
45	0x3d5fdc71	0.05465359
46	0x3e95a221	0.29225257
47	0x3e763a04	0.24045569
48	0x3d4045ba	0.046941496
49	0x3cab97dd	0.020946437
50	0xbe8ab3e9	-0.27090386
51	0x3e5d8ee1	0.21636535
52	0x3e39c8f8	0.1814307
53	0xbe8b4171	-0.27198365
54	0xbe8576c5	-0.26067176
55	0x3dce371b	0.10069104
56	0x3da0834e	0.078375444
57	0xbe0e760a	-0.13912216
58	0x3dec961f	0.11552071
59	0x3e827708	0.2548144
60	0x3d90160e	0.070354566
61	0xbe7c1d87	-0.24620639
62	0xbd11c9e0	-0.035592914
63	0xbea6d769	-0.3258622
64	0xbd403657	-0.046926823
65	0x3bbb308b	0.005712574
66	0x3e7cb97b	0.2468013
67	0xbe85b334	-0.26113284
68	0x3e7bee38	0.24602592
69	0xbe4e0f52	-0.20123032
70	0x3e17550e	0.1477854
71	0xbe3b82b1	-0.18311574
72	0x3dc0405f	0.09387278
73	0x3d6b250f	0.05740839
74	0xbd4917a6	-0.04909482
75	0x3e0c0905	0.13675316
76	0x3e8d5beb	0.2760919
77	0x3e07e86f	0.1327226
78	0xbde2aa09	-0.11067588
79	0x3d60dd6c	0.054898664
80	0xbe73b5d9	-0.23799838
81	0xbe1ab2d3	-0.15107279
82	0xbca8f0ef	-0.020622699
83	0xbe82bf56	-0.25536603
84	0x3dd338ab	0.10313543
85	0x3e723fa5	0.23657091
86	0x3daad7a3	0.08341911
87	0x3c85d62e	0.01633748
88	0x3e6f1238	0.23346794
89	0x3ccade3c	0.024764173
90	0xbdf19718	-0.11796397
91	0xbd3df9d9	-0.04638085
92	0xbceff5be	-0.029291984
93	0x3e4c3123	0.19940619
94	0x3e4b1079	0.19830503
95	0xbe4f4bd7	-0.20243774
96	0xbd182fdb	-0.037155014
97	0xbe8716af	-0.26384494
98	0xbd03b531	-0.03215522
99	0x3e3971c1	0.181098
100	0xbe51af04	-0.2047692
101	0x3d28ff9e	0.0412594
102	0x3e6f7776	0.23385414
103	0xbd928613	-0.07154479
104	0xbe85f3e9	-0.2616265
105	0xbb51db67	-0.0032021643
106	0x3df210f1	0.118196376
107	0x3dbcd70f	0.09220707
108	0xbead249a	-0.33816987
109	0xbd1b2d7f	-0.037885185
110	0x3e88e28d	0.26735345
111	0xbd1af09d	-0.037827123
112	0xbc8b8b8a	-0.01703431
113	0x3d3c250c	0.04593377
114	0xbd80c63d	-0.06287811
115	0x3daf7af3	0.085683726
116	0x3dd34f58	0.10317868
117	0x3e008093	0.12549047
118	0x3d91e244	0.07123235
119	0x3e551426	0.20808467
120	0x3d0a9c9d	0.033840764
121	0x3e8b6cb9	0.27231386
122	0xbe2b53c4	-0.16731173
123	0xbe713569	-0.2355553
124	0xbe3c75ee	-0.18404362
125	0xbe78c6d8	-0.24294603
126	0xbe4aa9d1	-0.19791342
127	0xbe4537d0	-0.19259572
128	0xbde983f0	-0.11402118
129	0xbe46c02c	-0.19409245
130	0xbd04e0a0	-0.03244078
131	0xbe1c444b	-0.15260427
132	0x3e8ae983	0.2713128
133	0x3e3e94c2	0.18611434
134	0x3e4c8fd6	0.19976744
135	0x3e1675b7	0.14693342
136	0xbe33b7f7	-0.17550646
137	0xbe441ef3	-0.19152431
138	0xbe186e8e	-0.14885923
139	0x3e809a57	0.25117752
140	0x3d8b78fc	0.06810185
141	0xbe25151f	-0.16121338
142	0xbe5ed773	-0.21761875
143	0x3de37a9d	0.11107371
144	0xbc2932f8	-0.010327093
145	0xbeb33497	-0.3500106
146	0xbe60bb9f	-0.21946572
147	0xbe8a446e	-0.27005333
148	0xbcc76033	-0.024337864
149	0x3e266cb2	0.16252401
150	0xbd710eae	-0.05885189
151	0xbdb58328	-0.08862907
152	0xbe5263f6	-0.20545945
153	0xbcbc3eec	-0.022979222
154	0xbe364ce4	-0.17802769
155	0xbd874ca2	-0.066064134
156	0x3e6f19e4	0.2334972
157	0x3e399df1	0.18126656
158	0x3e69c25a	0.22828045
159	0xbdcb513f	-0.09927606
160	0x3dca67da	0.09883089
161	0x3e5d70de	0.21625087
162	0xbd5bff75	-0.05371042
163	0xbe19b95e	-0.15012118
164	0xbd0269c1	-0.031839136
165	0x3e80b3c3	0.25137147
166	0x3e12e30d	0.14344425
167	0x3e870ed4	0.263785
168	0x3e890419	0.2676094
169	0xbc5f289e	-0.013620524
170	0x3d94d762	0.072676435
171	0x3e2da9de	0.1695933
172	0xbd53fb7b	-0.051753502
173	0x3e066581	0.13124658
174	0xbdcd4e2d	-0.100246765
175	0x3e76c7c7	0.24099647
176	0x3d02695e	0.031838767
177	0x3e869475	0.2628514
178	0x3e9ecf6c	0.31017625
179	0xbe1d39fa	-0.15354148
180	0x3e7f3fe8	0.24926722
181	0x3e6b45e6	0.22975883
182	0x3e4d9090	0.20074677
183	0x3d481b0b	0.048853915
184	0xbeab9532	-0.33512264
185	0x3dda0b16	0.10646646
186	0xbdda45fb	-0.10657879
187	0x3de8463c	0.11341521
188	0x3d58e984	0.052957073
189	0x3e342302	0.1759148
190	0xbe4d5aaf	-0.20054124
191	0xbdc6825c	-0.09692833
192	0x3cdedd82	0.027205233
193	0x3d9e4cd5	0.07729498
194	0x3e4f17ca	0.20223919
195	0x3dfa3316	0.12216775
196	0x3d3d4af4	0.04621406
197	0x3de9dc51	0.11418975
198	0xbdff9408	-0.124794066
199	0xbd94d6d1	-0.072675355
200	0xbe5eafb2	-0.2174671
201	0x3e79f71b	0.2441067
202	0xbd02be37	-0.031919684
203	0xbe4350d6	-0.19073805
204	0xbde38c51	-0.111107476
205	0x3d932097	0.071839504
206	0xbc630d0a	-0.013858089
207	0x3de03704	0.109479934
208	0xbc6ac2fa	-0.014328713
209	0xbded3c9a	-0.115838245
210	0xbe48f1d8	-0.19623506
211	0x3e57ad96	0.21062312
212	0xbe533400	-0.20625305
213	0xbd76e7a0	-0.06027949
214	0x3d5ac983	0.053414833
215	0x3e46bfd4	0.19409114
216	0x3dffd008	0.12490851
217	0x3de9efbe	0.1142268
218	0x3e1b4265	0.15162046
219	0x3e1bb73d	0.15206619
220	0x3e9a31ae	0.30116028
221	0xbe4b0e2d	-0.19829626
222	0x3e757aa2	0.23972562
223	0x3e0654e4	0.1311832
224	0x3c7c3abf	0.015394866
225	0x3dd4f135	0.10397569
226	0xbe0f6396	-0.14002833
227	0x3de546b9	0.1119513
228	0xbde00ef6	-0.109403536
229	0xbd831985	-0.06401352
230	0xbd7e5437	-0.062092032
231	0xbcd471ce	-0.025933173
232	0xbdc68321	-0.096929796
233	0x3e3a3579	0.1818446
234	0xbe888570	-0.26664305
235	0xbe8802a7	-0.26564524
236	0xbd82507d	-0.06363008
237	0xbdbff999	-0.09373779
238	0xbd98ac94	-0.07454792
239	0x3e3b3bd6	0.18284544
240	0x3d5314e0	0.05153358
241	0xbdc46e4d	-0.09591351
242	0x3e44d474	0.1922167
243	0x3e81c6e5	0.25347057
244	0x3e2f8cc1	0.17143537
245	0xbd814d11	-0.063135274
246	0x3e0ce455	0.13758977
247	0x3e8200aa	0.25391132
248	0xbd8388d3	-0.064225815
249	0x3df3f398	0.11911696
250	0x3d8c2a2b	0.068439804
251	0x3c211751	0.009832219
252	0x3e58d68f	0.21175598
253	0xbc68b6db	-0.014203752
254	0x3ca53a02	0.020169262
255	0xbd63d6a4	-0.05562462

net.0.bias f4 [64]
0	0x3aa6943d	0.0012708973
1	0xbb2d0572	-0.002640095
2	0xbd4cefda	-0.050033428
3	0xbd488fa6	-0.04896512
4	0x3cad8241	0.021180274
5	0x3aec3b34	0.0018023015
6	0xbd3b6d34	-0.04575844
7	0x3d5c08a7	0.05371919
8	0xbd4a6dfd	-0.0494213
9	0xbd8a8abc	-0.06764743
10	0xbd0ae67f	-0.033911224
11	0xbb97557c	-0.004618345
12	0xbc71283d	-0.014719066
13	0x3d9c97c5	0.07646135
14	0xbc0982ea	-0.008393029
15	0x3d325edf	0.043547507
16	0xbd476c9a	-0.048687555
17	0xbd7a1c55	-0.061062176
18	0xbcdc5652	-0.02689663
19	0xbd473b2c	-0.048640415
20	0xbd20c7c9	-0.03925303
21	0xbcaf2ee8	-0.021384671
22	0xbc0e56c0	-0.008687675
23	0xbd7b68ae	-0.061379127
24	0x3c6172dd	0.013760296
25	0x3bc7e0bf	0.00609979
26	0x3b9d275c	0.004795952
27	0xbd614ef5	-0.05500694
28	0x3c78b32e	0.0151794385
29	0xbb9d4be3	-0.004800306
30	0xbcc082ab	-0.023499807
31	0x3cdfb3d9	0.027307438
32	0xbc86fda2	-0.016478363
33	0x3d498ab3	0.04920454
34	0xbc533fd8	-0.0128936395
35	0xbb69ee29	-0.0035694933
36	0xbc2f004c	-0.010681223
37	0xbd19405b	-0.03741489
38	0xbd07e6eb	-0.033179205
39	0x3cccbeb3	0.024993276
40	0x3c03d276	0.008045783
41	0xbc1226fe	-0.008920429
42	0xbc642ffd	-0.013927457
43	0x3ce698d0	0.028149039
44	0xbd02772b	-0.03185193
45	0xbaeebc2c	-0.0018214039
46	0xbb9617dc	-0.004580481
47	0x3c7369fe	0.0148568135
48	0x3c8ef132	0.017448995
49	0xbced3683	-0.028956657
50	0xbd36fb53	-0.044673275
51	0xbc25ef20	-0.010127813
52	0xbc2228b1	-0.009897397
53	0xbc34f725	-0.011045252
54	0xbd1abeff	-0.037779804
55	0x3d09c337	0.033633437
56	0x3d4d3352	0.05009777
57	0xbc4423c6	-0.01197142
58	0xbb13bb34	-0.0022542002
59	0xbcb513bb	-0.022104135
60	0xbc96e315	-0.018418828
61	0x3d0c0303	0.03418256
62	0x3d38c654	0.045111015
63	0xbb3b2948	-0.002855854

net.3.weight f4 [64, 64]
0	0x3df605a9	0.12012798
1	0xbe1a99d1	-0.15097739
2	0x3d135f5d	0.035979617
3	0xbd656416	-0.056003653
4	0xbe77bdf3	-0.24193554
5	0x3e037786	0.12838563
6	0x3e015b65	0.1263252
7	0xbcccb448	-0.024988309
8	0xbdb8f0df	-0.090303175
9	0x3cc11066	0.02356739
10	0x3c82023d	0.015870208
11	0x3de21ac3	0.11040261
12	0xbe6c77d0	-0.2309258
13	0xbde10431	-0.109871276
14	0xbdd68eac	-0.10476431
15	0x3e5cbee4	0.21557194
16	0xbd88cca5	-0.06679658
17	0x3deee195	0.1166412
18	0x3d2cef7f	0.04222059
19	0xbd982633	-0.07429161
20	0xbe68b75d	-0.22726198
21	0x3e04963b	0.12947933
22	0x3de65bb7	0.11247962
23	0xbde6a56f	-0.11262023
24	0xbcaa47b8	-0.020786151
25	0xbc39622c	-0.01131491
26	0xbdea097f	-0.114275925
27	0x3e03f265	0.12885435
28	0xbd89f574	-0.067362696
29	0x3dd4a2df	0.10382628
30	0x3ddf217f	0.10895061
31	0xbdded094	-0.10879627
32	0x3e2c06ec	0.16799515
33	0x3d8ee306	0.06976895
34	0x3e203dd0	0.1564858
35	0xbe087d09	-0.13328947
36	0xbddfe550	-0.1093241
37	0x3ca7ed67	0.020498944
38	0x3d9c91a6	0.07644968
39	0x3d2e4531	0.042546455
40	0xbe64353d	-0.22285934
41	0x3b904bae	0.004403553
42	0x3d906cf8	0.07052034
43	0xbe0becbd	-0.13664527
44	0xbdbfee4c	-0.093716234
45	0xbd915992	-0.07097162
46	0xbbee6d6d	-0.007276228
47	0x3b6a39c9	0.003574001
48	0x3e3ea6d3	0.18618326
49	0x3e1f0084	0.1552754
50	0x3e2fa701	0.1715355
51	0x3d16be0d	0.03680234
52	0x3e2d4fe8	0.16925013
53	0x3e186710	0.14883065
54	0xbe3e778a	-0.18600288
55	0xbd90822c	-0.07056078
56	0xbe823097	-0.25427696
57	0xbb8b1789	-0.004244749
58	0xbcb4d668	-0.022074893
59	0x3dfd1a83	0.12358572
60	0xbd4f2f60	-0.05058229
61	0xbdbbfac2	-0.09178688
62	0xbdabe1cd	-0.083926775
63	0xbcc4755d	-0.023981744
64	0xbe1242e9	-0.14283337
65	0x3a24eaa1	0.0006291066
66	0x3c8f6b1c	0.017507128
67	0xbe7a312e	-0.24432823
68	0x3e171484	0.1475392
69	0xbdc28496	-0.09497945
70	0xbdf0e169	-0.117617436
71	0xbe1667d5	-0.14688046
72	0xbd23c113	-0.03997905
73	0xbddcb37e	-0.10776423
74	0xbdfe5f47	-0.124205165
75	0x3afd6d70	0.0019334983
76	0xbd90088e	-0.07032882
77	0xbe1decc4	-0.1542235
78	0x3d883f2f	0.06652676
79	0xbe2f831d	-0.1713986
80	0xbe0dfb08	-0.13865292
81	0x3e5f2bae	0.21794006
82	0x3d4e1887	0.05031636
83	0xbd920da7	-0.0713151
84	0x3dbbdfbe	0.09173535
85	0x3c4bd035	0.012439777
86	0x3d8f0f2c	0.06985316
87	0x3e100cb3	0.14067344
88	0xbe660b0d	-0.22465153
89	0xbd5ac3a4	-0.053409234
90	0xbd9c89b0	-0.07643449
91	0x3e0825c3	0.13295655
92	0x3e219793	0.15780477
93	0x3d9ee7b5	0.07759038
94	0x3dd32a35	0.10310785
95	0xbe969b9b	-0.29415593
96	0xbe05f576	-0.13081917
97	0x3e5e8198	0.21729124
98	0x3d3e2c8f	0.046429213
99	0xbd9c6dfb	-0.076381646
100	0x3d9e13e3	0.07718637
101	0x3e79d928	0.24399245
102	0x3e72a7b7	0.2369679
103	0x3e4a1072	0.19732836
104	0xbe52ae03	-0.20574193
105	0xbdf0668e	-0.11738311
106	0xbb8eba1e	-0.004355683
107	0x3df54479	0.11975951
108	0xbdbca09b	-0.092103206
109	0xbd21ffe4	-0.039550677
110	0x3de5801e	0.11206077
111	0x3e459fb1	0.19299199
112	0x3ce890e5	0.028389404
113	0xbe4a49e8	-0.19754755
114	0xbcfe1d6c	-0.031019889
115	0xbe172ed8	-0.14763963
116	0x3df3e70a	0.119093016
117	0x3bedaaad	0.007253012
118	0x3c431e46	0.011909073
119	0xbe81ae46	-0.25328273
120	0x3e655c43	0.22398476
121	0xbe38a7fd	-0.18032832
122	0x3dd075e4	0.10178736
123	0x3e017edc	0.1264605
124	0xbd9cea43	-0.076618694
125	0xbdfe696c	-0.124224514
126	0xbd3a0171	-0.04541153
127	0xbe4ee404	-0.20204169
128	0xbe1a3577	-0.15059458
129	0xbe418a23	-0.18900351
130	0x3d2576be	0.040396444
131	0xbe5fe755	-0.2186559
132	0x3d28f966	0.04125347
133	0x3e89a1a8	0.26881146
134	0x3d1f60a5	0.038910527
135	0xbe250cf8	-0.16118228
136	0xbd88ea2e	-0.06685291
137	0xbde1cc74	-0.110253245
138	0xbd8e634d	-0.06952534
139	0x3e376728	0.17910445
140	0x3e89931f	0.26870057
141	0xbc899eda	-0.01679938
142	0xbcc70f0b	-0.024299165
143	0xbe349f98	-0.17639005
144	0xbe2f7d63	-0.17137675
145	0x3e5ea99d	0.2174439
146	0xbcc3c894	-0.023899354
147	0xbe1e9f9d	-0.15490575
148	0x3de9aca6	0.11409883
149	0xbdebb9f1	-0.11510075
150	0xbd757c86	-0.059933208
151	0x3bc19307	0.0059074196
152	0xbb499ddf	-0.0030764265
153	0x3daf51d7	0.085605316
154	0x3d5ee498	0.054417223
155	0x3e20fcc0	0.15721416
156	0xbddada11	-0.10686124
157	0xbd892fb5	-0.066985525
158	0xbe47e5ed	-0.19521303
159	0x3d8fde1e	0.07024787
160	0xbd728256	-0.05920633
161	0xbca6309b	-0.020286849
162	0x3e594214	0.21216613
163	0xbe052c32	-0.1300514
164	0x3d44a38b	0.04800753
165	0xbdb6a2b9	-0.08917756
166	0x3d2aeb10	0.04172808
167	0x3e1ff0d3	0.15619211
168	0xbe81422a	-0.25245792
169	0xbdf6a909	-0.1204396
170	0x3db6e727	0.089308076
171	0x3e481c32	0.19542006
172	0xbd970874	-0.07374659
173	0x3e83bfab	0.2573217
174	0x3c51d82b	0.012807886
175	0xbd8b6696	-0.06806676
176	0xbba018f7	-0.0048857885
177	0xbe0dd6c6	-0.13851461
178	0x3d9ecb68	0.077536404
179	0xbe0c3ca8	-0.13695014
180	0x3d9e1a27	0.07719832
181	0xbe692e3d	-0.22771545
182	0x3e5180ea	0.20459333
183	0xbdd2dfc5	-0.10296587
184	0x3e3e598a	0.18588844
185	0x3d29f8f0	0.04149717
186	0x3dd54eb2	0.104154006
187	0xbc0307b5	-0.007997443
188	0x3e3a4db3	0.18193702
189	0x3d8f096a	0.069842175
190	0xbdaba58c	-0.08381185
191	0x3ca4c819	0.020114945
192	0x3dfd48ba	0.12367387
193	0xbe2abb7b	-0.1667308
194	0x3c83a21a	0.016068507
195	0xbe7fdb0b	-0.24985902
196	0x3cf0ef14	0.029410876
197	0x3e2900bb	0.16504185
198	0xbdbe816b	-0.09302028
199	0xbd7b5b15	-0.06136616
200	0xbdc944d6	-0.098275825
201	0x3e66141a	0.22468606
202	0x3e4bcf46	0.19903287
203	0x3de8ac59	0.11360998
204	0x3e50f307	0.20405208
205	0xbd45a2f5	-0.04825111
206	0x3e12bd75	0.14330085
207	0xbd3b1597	-0.045674887
208	0xbdb75f74	-0.08953753
209	0xbe2ecc90	-0.17070222
210	0x3e5277ad	0.20553465
211	0x3cb02aa2	0.021504704
212	0x3dd420ea	0.1035784
213	0xbd8ed91e	-0.069750056
214	0x3e053edf	0.13012265
215	0xbdce960d	-0.10087214
216	0xbe59c541	-0.21266653
217	0x3d30b316	0.04313954
218	0xbd28a308	-0.041171104
219	0x3d202b1c	0.039103612
220	0xbc61ce94	-0.013782162
221	0x3cb42558	0.021990463
222	0xbe475d6d	-0.19469233
223	0xbdbefb3f	-0.09325265
224	0x3da07fef	0.078369014
225	0xbd9f991a	-0.07792874
226	0x3e3d8504	0.18507773
227	0x3e30e246	0.17273816
228	0xbe39ba0d	-0.18137379
229	0xbd063cf4	-0.032772973
230	0xbe05f8e1	-0.13083221
231	0x3e110070	0.14160323
232	0xbc9efb4c	-0.019406937
233	0x3dc2548f	0.094887845
234	0x3d99dfb0	0.07513368
235	0xbe352ffd	-0.17694087
236	0x3e624d05	0.22099693
237	0x3e15ae2d	0.14617224
238	0x3e4242b0	0.18970752
239	0x3e6587c8	0.22415078
240	0xbd811187	-0.06302171
241	0xbce46d3e	-0.027884122
242	0xbd573b45	-0.05254676
243	0x3e1a1b84	0.15049559
244	0x3e7de838	0.24795616
245	0xbe6e3b47	-0.232648
246	0xbc0f8bce	-0.008761359
247	0x3dd358b3	0.103196524
248	0x3d1ea534	0.03873177
249	0xbd6f9e72	-0.058500715
250	0x3da4a486	0.08039193
251	0x3e1a5b03	0.1507378
252	0xbd9c49d0	-0.07631266
253	0xbe505b19	-0.20347251
254	0xbd54e64b	-0.051977437
255	0xbde5e2ea	-0.11224921

net.3.bias f4 [64]
0	0xbc3ac136	-0.011398604
1	0x3d1a2ea5	0.03764214
2	0x3d7a37d8	0.061088413
3	0x3cf68a3f	0.030095218
4	0x3d1ee17b	0.038789254
5	0xbc70ca37	-0.014696649
6	0x3d22f434	0.03978367
7	0x3c655019	0.013996148
8	0xb8ce7e17	-9.8463315e-05
9	0x3d6abf43	0.057311308
10	0x3c63f3cc	0.013913106
11	0x3c96461b	0.018343976
12	0x3cb2ef9a	0.021842767
13	0x3d4acde9	0.049512777
14	0x3ce50903	0.027958399
15	0x3ce2714a	0.027641911
16	0x3d59bf8a	0.05316118
17	0x3d8ba0b6	0.068177626
18	0x3d25a9aa	0.040445007
19	0x3cd9cca3	0.026586836
20	0xbcab0588	-0.020876661
21	0xbcf2c2e0	-0.02963394
22	0x3c0bf23f	0.008541643
23	0x3c4daaba	0.012552911
24	0x3d6243cc	0.055240437
25	0xbd1049fe	-0.035226814
26	0xbcb73968	-0.02236624
27	0x3d464ef9	0.048415158
28	0x3d0b038a	0.033938922
29	0x3cbbf8c3	0.022945767
30	0xbc350672	-0.0110489
31	0xbc8f0a7c	-0.017461054
32	0x3c62f625	0.013852631
33	0xbcfd7389	-0.03093888
34	0xbb7cf5ca	-0.003859865
35	0xbd334d5d	-0.04377495
36	0x3d137ed0	0.03600961
37	0xbc1bb0fa	-0.009502644
38	0x3d3bc3d7	0.045841064
39	0xbc8c8c02	-0.017156605
40	0xbcf5f977	-0.03002618
41	0x3d0f8f3f	0.03504872
42	0x3c949ed3	0.01814214
43	0x3beb70f7	0.0071850973
44	0xbc8bfcaa	-0.017088253
45	0xbb4bc3b8	-0.0031092
46	0x3d7a72d7	0.061144676
47	0xbc076ad6	-0.008265218
48	0x3cd8afec	0.026451074
49	0xbc015cef	-0.007895692
50	0xbc9aa24b	-0.018876215
51	0x3c8b3fce	0.016998198
52	0xbbbb6fbc	-0.005720107
53	0x3cc746be	0.024325725
54	0x3c2cd9d9	0.010549986
55	0x3cb48718	0.022037074
56	0x3d02ea14	0.031961516
57	0x3d883814	0.06651321
58	0x3d8b9eb8	0.068173826
59	0xbd179562	-0.037007697
60	0x3c655f49	0.0139997685
61	0x3ca6b430	0.020349592
62	0xbc11de7c	-0.008903142
63	0x3d271b03	0.040797245

net.6.weight f4 [2, 64]
0	0x3e8c9632	0.2745834
1	0xbe86ca7d	-0.2632636
2	0xbdbb9a07	-0.09160238
3	0xbe7cd46a	-0.24690405
4	0x3e3ff546	0.18745908
5	0xbe18abb7	-0.14909254
6	0x3ea38579	0.3193777
7	0xbe4d8df4	-0.20073682
8	0xbe3c1656	-0.18367895
9	0xbcb2ffd4	-0.021850504
10	0xbe2bad7f	-0.16765402
11	0x3ebea906	0.3723833
12	0x3e2e4e89	0.17022146
13	0xbc23ce36	-0.009997895
14	0xbe8929e6	-0.26789778
15	0x3d46d5b0	0.048543632
16	0xbe596b67	-0.21232377
17	0xbe8878c5	-0.2665464
18	0xbd97cf8a	-0.07412632
19	0xbe0bc0f6	-0.13647828
20	0x3e89117d	0.26771155
21	0xbd710967	-0.058846857
22	0x3e35299d	0.17691655
23	0xbde1bbb3	-0.11022129
24	0x3cc9e3b7	0.024644716
25	0xbe209476	-0.15681633
26	0xbe9348b0	-0.28766394
27	0xbe61a910	-0.22037148
28	0xbe3f892f	-0.18704675
29	0x3e973e8c	0.29539907
30	0xbddb124b	-0.106968485
31	0x3cf67c62	0.030088607
32	0x3ea18334	0.31545413
33	0xbd2a7a7d	-0.04162072
34	0x3ea1a9c8	0.31574845
35	0x3e6c2b83	0.23063473
36	0xbc967e13	-0.018370664
37	0x3e205412	0.1565707
38	0x3e893d65	0.26804653
39	0x3da7bac2	0.08189918
40	0x3e7fca03	0.24979405
41	0x3e9f636b	0.31130537
42	0x3e1f58a8	0.15561163
43	0x3cc08b87	0.023504032
44	0x3e4ff511	0.20308329
45	0xbe2928ee	-0.1651952
46	0xbe046dbf	-0.1293249
47	0xbe90076f	-0.2813067
48	0xbe0f75a6	-0.14009723
49	0xbe29ca77	-0.1658114
50	0xbea3f7de	-0.32025045
51	0xbe40cdd0	-0.18828511
52	0xbe5f5fa8	-0.21813834
53	0x3e6264d4	0.22108775
54	0xbddef4c3	-0.10886528
55	0xbd733a61	-0.059381846
56	0xbd69e08b	-0.057098906
57	0x3e99a04e	0.30005115
58	0x3e3d042a	0.1845862
59	0xbdf7eb97	-0.12105482
60	0xbe7483a5	-0.23878343
61	0xbdbf766c	-0.09348759
62	0x3e2b7322	0.16743138
63	0x3c1f7450	0.009732321
64	0x3cf210de	0.029549059
65	0xba64e59f	-0.0008731726
66	0x3e126f6c	0.14300317
67	0xbd951a1a	-0.07280369
68	0xbe8ba3b5	-0.27273336
69	0x3e947258	0.28993487
70	0xbd2cc804	-0.042182937
71	0xbb5f2375	-0.0034048234
72	0x3e4c87e0	0.19973707
73	0xbe98c16f	-0.29835078
74	0x3ddbb41d	0.10727713
75	0x3c942353	0.01808325
76	0xbdc695b8	-0.09696525
77	0x3e3e0fd3	0.18560724
78	0x3eafbad4	0.34322226
79	0x3e595dd5	0.212272
80	0xbe998980	-0.29987717
81	0xbe03f67b	-0.12886994
82	0x3ccbf520	0.024897158
83	0x3e37b7d3	0.17941217
84	0x39e2c728	0.00043254462
85	0x3e918034	0.28418124
86	0xbe8e0e73	-0.277454
87	0xbdaad17f	-0.083407395
88	0x3e8ebe54	0.27879584
89	0xbe10cd21	-0.1414075
90	0xbe5f8c58	-0.2183088
91	0xbdabab94	-0.08382335
92	0x3eb10653	0.34575137
93	0xbe58c5f7	-0.21169268
94	0xbd5556f6	-0.052084886
95	0xbe501cc7	-0.20323478
96	0x3e0519d5	0.12998135
97	0x3e6aca8e	0.22928831
98	0x3dd5784b	0.10423335
99	0x3e71568e	0.23568174
100	0xbe9226f1	-0.28545335
101	0x3d02e47e	0.03195619
102	0x3dda8d0d	0.106714346
103	0x3e453960	0.19260168
104	0x3dbe0c63	0.09279706
105	0x3df1f679	0.11814589
106	0xbd91d988	-0.07121569
107	0xbe56f53b	-0.20991985
108	0xbe970ad8	-0.2950046
109	0x3e9b505b	0.30334744
110	0xbe6604f5	-0.22462828
111	0xbe995c18	-0.29953074
112	0x3e3bd77d	0.18343921
113	0x3beacc4a	0.0071654664
114	0xbe343742	-0.17599204
115	0x3e81deb5	0.25365224
116	0xbe0094fc	-0.12556833
117	0xbdb5fb62	-0.08885838
118	0xbe51475d	-0.20437379
119	0xbe598d8a	-0.21245399
120	0xbea45ff6	-0.32104462
121	0x3e423d54	0.18968707
122	0xbe96c9c0	-0.29450798
123	0xbd57449d	-0.05255567
124	0x3ca54733	0.020175552
125	0x3e8ff935	0.28119817
126	0xbe869ead	-0.26292935
127	0x3e1b132a	0.1514403

net.6.bias f4 [2]
0	0x3c8be412	0.017076526
1	0xbc8be411	-0.017076524

feature_mean f4 [12]
0	0x408d7d71	4.4215627
1	0x40030994	2.0474596
2	0x3cda2411	0.026628526
3	0x442b1616	684.3451
4	0x449126af	1161.2089
5	0x448c4589	1122.173
6	0x43094e66	137.30624
7	0x4043d18c	3.0596647
8	0x3f7f2075	0.996589
9	0x3f1dbff0	0.61621
10	0x3f3b7d4c	0.7323806
11	0x3f77672a	0.9664179

feature_std f4 [12]
0	0x3ff9b0c3	1.9507068
1	0x3ef566b6	0.47929925
2	0x3c8971ba	0.016777862
3	0x43392585	185.14656
4	0x43bd58e2	378.6944
5	0x441a9782	618.3673
6	0x429dd110	78.908325
7	0x3f4b85c7	0.79501003
8	0x3b859ac2	0.0040772865
9	0x3e4fc5bd	0.20290275
10	0x3d725044	0.05915858
11	0x3c947f6a	0.018127162
